Models/20x20_LR=0.01/best.pth (torch, 267733 bytes, 16 tensors)

layers.1.weight f4 [16, 1, 3, 3]
0	0xbf6149fd	-0.8800352
1	0xbe18aa59	-0.14908732
2	0xbde13865	-0.109970845
3	0x3f6f1612	0.9339305
4	0xbdd1513f	-0.102205746
5	0x3f04dee2	0.5190259
6	0x3eed6316	0.4636466
7	0x3df5da09	0.120044775
8	0x3d0e8ee1	0.03480423
9	0xbed458e6	-0.41474074
10	0xbf4a1a18	-0.78946066
11	0xbf9c2ec1	-1.2201768
12	0x3f15bbd6	0.5848974
13	0x3f2f001f	0.6835956
14	0xbea601a8	-0.3242314
15	0x3e28838c	0.16456431
16	0xbe81d21d	-0.25355616
17	0xbf868011	-1.0507833
18	0x3eee7c40	0.4657917
19	0xbf6ce5ae	-0.92537963
20	0xbeb630d9	-0.35584143
21	0x3d106792	0.035255022
22	0x3e8443bd	0.2583293
23	0xbe4b3243	-0.19843392
24	0x3f51becb	0.8193175
25	0x3f1bed73	0.60909194
26	0x3f4acd3a	0.792194
27	0xbe6711e8	-0.22565424
28	0x3e870ef9	0.2637861
29	0xbe6bb67e	-0.23018834
30	0x3fa4c7b3	1.2873443
31	0xbf09899f	-0.5372562
32	0xbde114c4	-0.10990289
33	0xbed5035c	-0.41604125
34	0xbedd2734	-0.43193972
35	0xbefab2e2	-0.48964602
36	0x3d3f0a2a	0.046640553
37	0xbe9dd533	-0.3082672
38	0x3e66ce02	0.22539523
39	0xbde5e0e1	-0.11224533
40	0xbe4b9d42	-0.19884208
41	0x3f578628	0.8418908
42	0xbe97b60e	-0.29631084
43	0x3ebe6b5c	0.37191284
44	0x3f4fb718	0.81138754
45	0x3d8c4721	0.06849504
46	0xbe4b9d37	-0.19884191
47	0xbdac3076	-0.08407681
48	0xbeb89973	-0.36054572
49	0x3f37f780	0.7186203
50	0x3f82a67e	1.0207059
51	0xbe9959fb	-0.29951462
52	0x3edc899e	0.43073744
53	0x3f5cfedb	0.8632638
54	0x3f0deff6	0.55444276
55	0xbefe7825	-0.49701038
56	0x3f1803fe	0.5938109
57	0x3e6945cc	0.22780532
58	0xbf6506ac	-0.89463305
59	0x3f47789e	0.7791842
60	0x3deb92b9	0.115025945
61	0xbe969050	-0.29406977
62	0xbe4d0c33	-0.20024185
63	0x3e55dc75	0.20884879
64	0x3eecfa21	0.46284583
65	0xbf2c59fb	-0.673248
66	0x3f9225c8	1.141778
67	0xbf1b130b	-0.6057593
68	0x3d97c198	0.07409972
69	0x3f35fc15	0.7108777
70	0x3ecc4508	0.39896417
71	0x3e907e97	0.2822158
72	0xbef41110	-0.47669268
73	0xbe5f8f3b	-0.21831982
74	0xbf73b59d	-0.95198995
75	0x3f32a117	0.69777054
76	0x3d216fa1	0.0394131
77	0xbf8c3078	-1.0952291
78	0xbeb92d73	-0.36167488
79	0xbee64082	-0.4497109
80	0xbeb5c006	-0.35498065
81	0xbeb4b081	-0.35290912
82	0xbf1fbb8b	-0.6239554
83	0xbe9e67a8	-0.30938458
84	0x3f12a741	0.5728646
85	0xbe462b04	-0.19352347
86	0xbe9cc0ed	-0.3061594
87	0xbe90f1c4	-0.28309453
88	0xbebd32d9	-0.36952856
89	0xbdf2b136	-0.118502066
90	0xbe834f7a	-0.25646573
91	0x3e650d93	0.2236846
92	0xbf092e84	-0.535866
93	0x3f9c8eba	1.2231057
94	0xbe745972	-0.23862246
95	0xbf19bba1	-0.60051924
96	0xbebee3c9	-0.3728316
97	0xbe6a7e95	-0.2289985
98	0xbe00d13d	-0.12579818
99	0x3f25055c	0.644613
100	0x3ed2e664	0.411914
101	0xbe6dcf33	-0.23223571
102	0xbf04d0a6	-0.5188087
103	0xbed2da96	-0.41182393
104	0xbe873ffd	-0.26416007
105	0xbf310662	-0.69150364
106	0xbf2ba17f	-0.670433
107	0xbead0cf0	-0.33798933
108	0xbe52d728	-0.20589888
109	0xbefe3533	-0.49649963
110	0xbe863627	-0.2621319
111	0xbe2521d6	-0.16126189
112	0xbf13f66f	-0.577979
113	0x3f3c4d2f	0.7355527
114	0xbde1e5a2	-0.11030127
115	0x3e350c6f	0.17680524
116	0x3fa75482	1.3072665
117	0xbd79e44e	-0.061008744
118	0x3f349182	0.7053453
119	0x3ecd95d8	0.40153384
120	0x3f6b7460	0.9197445
121	0x3eb83ad7	0.3598239
122	0xbf521832	-0.8206817
123	0xbf840fea	-1.0317357
124	0xbf7122fa	-0.94193995
125	0xbf622b89	-0.8834768
126	0xbf279344	-0.65459085
127	0xbe25f1f4	-0.16205579
128	0xbe5344f1	-0.20631768
129	0xbf4af249	-0.7927595
130	0xbf69dd85	-0.91353637
131	0x3e5219cf	0.20517658
132	0x3f3d6292	0.7397853
133	0x3ea7c5d1	0.3276811
134	0x3f84e8aa	1.0383503
135	0x3f04c7ae	0.5186719
136	0xbecbdc8d	-0.39816704
137	0xbe5759d1	-0.21030356
138	0x3fb0a1ad	1.379934
139	0x3d92a123	0.07159641
140	0x3ddb9741	0.10722209
141	0xbdc31a9d	-0.095265605
142	0xbe7d9a6f	-0.24765943
143	0x3cfa55e5	0.030558536

layers.1.bias f4 [16]
0	0x3ec23e45	0.37938133
1	0xbdf4c578	-0.11951727
2	0x3eef28ad	0.4671072
3	0xbf340655	-0.7032216
4	0xbf14c5f3	-0.58114547
5	0x3ec30d9a	0.38096315
6	0x3ebfa53c	0.3743075
7	0x3f22050a	0.6328894
8	0x3eff02f2	0.49806935
9	0xbe9e7a8b	-0.30952868
10	0xbf30bc6b	-0.69037503
11	0x3f319e4e	0.6938218
12	0xbf41ce75	-0.75705653
13	0xbe9818f9	-0.29706553
14	0xbefb43b5	-0.49075094
15	0x3ee811c4	0.45326054

layers.3.weight f4 [16]
0	0x3ef6662c	0.48124826
1	0x3fafc84e	1.3733003
2	0x3f504744	0.8135874
3	0x3efb80e9	0.49121788
4	0x3dc292e8	0.095006764
5	0x3f5181c6	0.81838644
6	0x3fdd2e80	1.7279816
7	0x3f2cdc64	0.6752379
8	0x3ecb8e64	0.39757073
9	0x3f876ae6	1.0579498
10	0x4010c335	2.2619145
11	0x3fb41bdf	1.4071006
12	0x3f009e6d	0.5024174
13	0x3fb00918	1.3752775
14	0x3f060db9	0.5236469
15	0x3fcdfe42	1.6093218

layers.3.bias f4 [16]
0	0xbf87223e	-1.0557325
1	0xbec37d3d	-0.38181487
2	0xbf23ffd9	-0.6406227
3	0xbf8131a3	-1.0093273
4	0xbf7264f6	-0.94685304
5	0xbf843f1e	-1.0331762
6	0xbe5e9b12	-0.21738842
7	0xbf21dba3	-0.63225764
8	0xbf60da70	-0.8783331
9	0xbf825a9c	-1.0183902
10	0xbf4b0ead	-0.7931927
11	0x3f9557ef	1.166746
12	0xbf7a460b	-0.9776313
13	0xbf77510a	-0.9660803
14	0xbf5b8add	-0.85758764
15	0x3b8b8253	0.004257479

layers.3.running_mean f4 [16]
0	0x3f1417fe	0.5784911
1	0x3ef24ca3	0.47324094
2	0x3f30b953	0.6903278
3	0x3e285f46	0.16442594
4	0x3ea0c521	0.31400397
5	0x3f095446	0.53644216
6	0x3f07e012	0.5307628
7	0x3f4187ff	0.7559814
8	0x3f837b82	1.0272067
9	0x3dbb31be	0.09140347
10	0x3e0e154c	0.13875312
11	0x3f952116	1.1650722
12	0x3ea3e8f4	0.32013667
13	0x3eba1b17	0.36348793
14	0x3ec0c2be	0.37648576
15	0x3f11b93c	0.5692327

layers.3.running_var f4 [16]
0	0x408b1240	4.345978
1	0x3fda19db	1.703914
2	0x410e8b60	8.909027
3	0x3fea8785	1.8322607
4	0x4081f8b9	4.0616117
5	0x410e4729	8.892373
6	0x3fedfe70	1.8593273
7	0x40c33191	6.0998006
8	0x3ecf8e5b	0.40538296
9	0x3e19cb09	0.15018858
10	0x3fbc8679	1.4728538
11	0x3fd8e012	1.6943381
12	0x40bdb00b	5.9277396
13	0x40ad9473	5.4243712
14	0x40eb5cad	7.355063
15	0x40b0d63e	5.5261526

layers.4.weight f4 [32, 16, 3, 3]
0	0xbf1803fe	-0.5938109
1	0x3f158d04	0.584183
2	0x3d8bf058	0.06832951
3	0xbe6d8692	-0.23195866
4	0x3f1d228f	0.6138086
5	0x3c55e9ce	0.013056232
6	0x3f170ee8	0.5900712
7	0x3e9b8188	0.30372262
8	0x3f410493	0.75397605
9	0xbe44003b	-0.19140713
10	0xbeeb70ed	-0.45984593
11	0x3f3bb92d	0.7332943
12	0x3eda357a	0.42618924
13	0xbd887403	-0.066627525
14	0xbecc9a55	-0.39961496
15	0x3f508896	0.81458414
16	0x3f0492b2	0.5178634
17	0x3ed45901	0.41474155
18	0xbde03fbf	-0.109496586
19	0xbe27df2d	-0.16393729
20	0xbce54fca	-0.027992148
21	0x3f1a8b1d	0.6036852
22	0xbe984e99	-0.29747465
23	0xbe53dbd1	-0.20689322
24	0x3f6fe2cd	0.93705446
25	0x3f0051c4	0.50124764
26	0x3ef6316e	0.48084587
27	0x3eb41de3	0.35179052
28	0xbe3dce51	-0.18535735
29	0xbcbd56bf	-0.023112653
30	0x3cdd938d	0.027047897
31	0x3e836260	0.25660992
32	0x3f0a8648	0.54111147
33	0x3f899d24	1.075108
34	0x3dda8177	0.10669225
35	0x3e8d9e3f	0.27659795
36	0xbef66173	-0.48121223
37	0x3c23fa7c	0.010008451
38	0x3ea2b66a	0.31779796
39	0x3dc667cf	0.09687769
40	0x3e62dfff	0.2215576
41	0x3ea2c3c8	0.31789994
42	0x3e441486	0.19148454
43	0x3ec51c27	0.3849804
44	0x3f4de650	0.80429554
45	0xbe876f65	-0.26452175
46	0xbe05cc2a	-0.13066164
47	0x3e214a6a	0.15751043
48	0xbe860d35	-0.2618195
49	0x3dfb44e2	0.12268998
50	0x3f04da7d	0.51895887
51	0x3ee6ff66	0.4511673
52	0x3ee06707	0.43828604
53	0x3ee28a00	0.4424591
54	0xbe6c31b7	-0.2306584
55	0x3fa27a08	1.2693491
56	0x3f086a41	0.5328713
57	0xbe503363	-0.20332102
58	0xbf118f6a	-0.5685946
59	0xbe31919b	-0.173407
60	0x3b59cd21	0.0033233839
61	0x3e8657c6	0.2623884
62	0x3ef928ae	0.4866385
63	0x3bb5c28e	0.0055468744
64	0xbd6130fc	-0.054978356
65	0x3f007522	0.5017873
66	0x3ea4e9bd	0.32209578
67	0xbd464e5c	-0.048414573
68	0x3f73bd45	0.9521068
69	0x3f87768a	1.058305
70	0x3ed4261b	0.41435322
71	0x3eb41bb6	0.35177392
72	0x3eca9d8c	0.39573324
73	0xbf21cd71	-0.63204104
74	0x3f939a04	1.1531377
75	0x3cbcf2f7	0.023065073
76	0x3e806cb6	0.2508294
77	0x3fab85d7	1.340022
78	0x3ec56381	0.38552478
79	0x3e405d72	0.18785647
80	0x3f0bbc5e	0.545843
81	0xbf1e8650	-0.61923695
82	0xbf4d23f1	-0.8013297
83	0xbd286329	-0.04111019
84	0x3d1bef91	0.038070265
85	0x3f2beedd	0.6716135
86	0xbd6df4b6	-0.058094703
87	0x3f8712fe	1.0552671
88	0x3f0a0e80	0.53928375
89	0x3f6ab158	0.91676855
90	0xbf10af79	-0.5651775
91	0xbeaacfdc	-0.3336171
92	0xbc4c958b	-0.012486826
93	0xbec581f2	-0.38575703
94	0x3f4365ac	0.76327014
95	0xbe90ecbd	-0.28305617
96	0x3fb2e2cf	1.3975466
97	0x3ecd4535	0.40091863
98	0x3d91e260	0.07123256
99	0x3f4bdd1f	0.7963428
100	0x3f3a2ab1	0.7272139
101	0x3fc19163	1.5122494
102	0xbf048f26	-0.5178093
103	0xbec846a4	-0.39116395
104	0x3f7932a5	0.973429
105	0xbda4d124	-0.08047703
106	0xbf396872	-0.72424996
107	0xbf40ccfa	-0.7531277
108	0xbf0fc398	-0.5615783
109	0x3dfe7224	0.12424114
110	0x3dcd659d	0.10029147
111	0x3d5d8c6b	0.05408899
112	0x3e84e248	0.2595389
113	0x3eb04912	0.34430748
114	0x3eb8cf85	0.36095825
115	0x3eab411e	0.33448118
116	0x3f395937	0.72401756
117	0x3e874654	0.26420844
118	0x3f10d5da	0.5657631
119	0x3e4c0cb6	0.19926724
120	0xbeccab3a	-0.39974385
121	0x3f5bb3f3	0.85821456
122	0x3f57d842	0.8431436
123	0x3e21e761	0.1581092
124	0xbecc801c	-0.3994149
125	0x3d3ea0d3	0.046540093
126	0x3e35c589	0.17751135
127	0x3f111add	0.56681615
128	0x3e860360	0.2617445
129	0x3dced6cc	0.10099563
130	0x3e2a5345	0.16633327
131	0x3eaa0ddf	0.33213708
132	0x3ee8a2b0	0.4543662
133	0x3f09d943	0.5384714
134	0x3f180cf4	0.59394765
135	0xbeff9621	-0.49919227
136	0x3f1c49f9	0.61050373
137	0x3ec3bb5c	0.3822888
138	0xbe88ac7d	-0.26694098
139	0x3e069773	0.13143711
140	0xbe960d1d	-0.2930688
141	0x3f16010b	0.5859534
142	0xbe4c1813	-0.19931059
143	0x3c5bb271	0.013409243
144	0x3ec310ff	0.38098904
145	0x3c192895	0.009348054
146	0x3ef53a7e	0.47896188
147	0x3f5511eb	0.83230466
148	0x3dee3e35	0.11632959
149	0xbef8cac5	-0.485922
150	0xbe87b1a1	-0.26502708
151	0x3f38c8a0	0.7218113
152	0xbe1ee49e	-0.15516898
153	0x3c8bbd06	0.017057907
154	0xbdd983b3	-0.10620823
155	0xbef0a6b9	-0.470022
156	0x3f4c99fc	0.7992246
157	0x3e2845cf	0.1643288
158	0xbecee602	-0.40409857
159	0x3fb2bed8	1.3964491
160	0x3f624696	0.88388956
161	0x3e0b4c7c	0.13603395
162	0xbf1881a6	-0.5957283
163	0x3ed5ecf1	0.41782334
164	0xbef69c40	-0.48166084
165	0x3f9fb11d	1.2475926
166	0x3e0cbf98	0.13744962
167	0xbf32afa1	-0.6979924
168	0x3f888d00	1.066803
169	0xbd327960	-0.043572783
170	0xbf0cd70a	-0.55015624
171	0x3f3846eb	0.7198321
172	0xbe49a64c	-0.19692343
173	0xbe7672f4	-0.24067289
174	0xbd0ae035	-0.033905227
175	0xbeab2072	-0.3342319
176	0xbd944a1e	-0.07240699
177	0xbe192f39	-0.1495942
178	0x3eb50c5a	0.35360986
179	0xbef64b4c	-0.48104322
180	0xbee4d0da	-0.4469059
181	0xbf0cfeea	-0.5507647
182	0x3f9db555	1.2320963
183	0xbe31f6ae	-0.17379257
184	0xbf3220a1	-0.6958104
185	0x3f6bf9e5	0.92178184
186	0x3e8a67a4	0.27032197
187	0xbf43ac3d	-0.7643469
188	0x3ef1e116	0.4724204
189	0xbea97913	-0.33100185
190	0xbed7e720	-0.42168522
191	0x3f1ab5fa	0.60433924
192	0x3b658228	0.0035020206
193	0xbeb34393	-0.35012493
194	0x3e2c1f4b	0.16808812
195	0x3ebc208d	0.36743584
196	0xbeee3608	-0.46525598
197	0xbef0f7a3	-0.47063932
198	0xbe29a15f	-0.16565464
199	0xbe0436a1	-0.12911464
200	0xbc37f4c8	-0.011227794
201	0x3e4af84f	0.19821285
202	0x3f4ddc54	0.8041432
203	0xbf22ccac	-0.63593554
204	0x3e979045	0.29602256
205	0xbe5301a5	-0.20606096
206	0xbd874df9	-0.06606669
207	0x3f2b4d5b	0.6691491
208	0xbf4656e7	-0.7747635
209	0xbf7bcc5f	-0.9835872
210	0x3e8c32f3	0.2738262
211	0xbd3b0d20	-0.045666814
212	0xbea12729	-0.3147519
213	0xbf0023a2	-0.5005437
214	0x3e6b8717	0.23000751
215	0xbf8b2c66	-1.0872924
216	0x3ecbaa70	0.3977847
217	0x3f1c80f9	0.61134297
218	0xbf0758bd	-0.5286978
219	0x3e1e87e0	0.1548152
220	0x3f56a054	0.8383839
221	0x3eb1f080	0.347538
222	0x3f39a285	0.7251361
223	0x3e9ad2ec	0.30239046
224	0x3e95cf8e	0.29259914
225	0x3f7abacc	0.9794128
226	0x3e92cb40	0.28670692
227	0xbebcb543	-0.36857042
228	0x3f0d3180	0.55153656
229	0x3f1b1672	0.60581124
230	0x3eaa0511	0.3320699
231	0x3f87e34d	1.0616242
232	0x3fb30ba6	1.398793
233	0xbe9ab804	-0.30218518
234	0x3f17a46e	0.59235275
235	0x3e3a3dc5	0.18187626
236	0xbe4cd69a	-0.20003739
237	0x3ea62959	0.3245342
238	0xbea59d9a	-0.32346803
239	0xbeec5ae8	-0.46163106
240	0xbb9ddc0b	-0.004817491
241	0x3fd46cb5	1.6595675
242	0xbdc603af	-0.09668671
243	0xbeafc508	-0.3433001
244	0xbee3fb1e	-0.44527525
245	0xbf102477	-0.5630564
246	0x3d78cb01	0.060740475
247	0xbf2f5aca	-0.6849791
248	0xbf62f99e	-0.88662136
249	0xbf485143	-0.78248996
250	0xbed6a2a5	-0.41920963
251	0xbf43fb4b	-0.7655532
252	0x3e4deb2f	0.20109247
253	0xbee4073e	-0.44536775
254	0x3ef26161	0.4733992
255	0x3eefc75b	0.46831784

layers.4.bias f4 [32]
0	0xbdca12c9	-0.09866864
1	0xbeee560a	-0.46550018
2	0xbea0cce7	-0.31406328
3	0x3df00a9d	0.11720774
4	0xbe01cad0	-0.12675023
5	0xbda06364	-0.07831457
6	0x3f20601c	0.6264665
7	0xbf69d0f2	-0.9133445
8	0x3eab0012	0.3339849
9	0xbd8775a9	-0.06614239
10	0xbf8d06f2	-1.1017745
11	0xbdf2af2b	-0.11849817
12	0x3f27951d	0.65461904
13	0x3f62fd22	0.886675
14	0x3f1d918b	0.61550206
15	0x3f3ef765	0.74596244
16	0xbd61b77d	-0.05510663
17	0xbe8afac9	-0.2714446
18	0x3e34b30e	0.17646429
19	0x3f4536fa	0.7703701
20	0xbdebb5c3	-0.11509278
21	0x3f3f4c53	0.74725837
22	0xbf31f5d4	-0.6951573
23	0xbf415ce5	-0.7553237
24	0xbf0a54ad	-0.54035455
25	0x3ef5be3b	0.47996697
26	0x3cf7dcf6	0.03025673
27	0xbf022ea9	-0.5085245
28	0xbd44fb6e	-0.048091345
29	0x3ecfc1e8	0.40577626
30	0xbf77ef34	-0.9684937
31	0xbf7c80ae	-0.9863385

layers.6.weight f4 [32]
0	0xbd1fda75	-0.039026696
1	0x3d50fc8b	0.051022094
2	0xbc3c6ccf	-0.011500551
3	0xbcddee6c	-0.027091227
4	0x3dc9af08	0.09847838
5	0xbe6affdc	-0.22949165
6	0x3dcf7f9c	0.101317614
7	0xbdb1f7d0	-0.086898446
8	0x3eda7276	0.42665452
9	0xbf0cf65c	-0.55063415
10	0x3d34b25b	0.044115406
11	0x3e989ce9	0.29807213
12	0x3ec7c284	0.3901559
13	0x3eaa1c42	0.33224684
14	0x3e7d1d18	0.2471813
15	0xbef1f502	-0.4725724
16	0x3e68abd2	0.22721794
17	0x3e00a707	0.12563716
18	0x3f150078	0.5820384
19	0x3e2f4bc9	0.17118753
20	0xbeac2082	-0.33618551
21	0x3f1121bd	0.56692106
22	0x3ca1e33f	0.01976168
23	0x3aefcd6c	0.0018295473
24	0x3c7c52e8	0.015400626
25	0xbf0c2a52	-0.54752076
26	0x3f2e6c92	0.68134415
27	0x3b931a57	0.004489224
28	0xbd0eae26	-0.03483405
29	0xbf0b8072	-0.54492867
30	0x3e6ee3f3	0.23329143
31	0x3e5eb0ef	0.21747182

layers.6.bias f4 [32]
0	0x3e9163c2	0.28396422
1	0x3f299a6a	0.6625124
2	0xbf02c909	-0.51088005
3	0xbf39bea8	-0.72556543
4	0xbea7cf39	-0.32775286
5	0x3f9b4572	1.2130568
6	0x3ef04148	0.46924806
7	0xbe91bdba	-0.28465062
8	0xbf3d4100	-0.7392731
9	0xbf7d0617	-0.9883742
10	0xbed1fc9c	-0.41013038
11	0x3f4fe11a	0.8120285
12	0xbf50cd92	-0.81563675
13	0xbf9b05c8	-1.2111139
14	0x3ef3a533	0.47586975
15	0x3f5078ea	0.814345
16	0xbe5546ac	-0.2082774
17	0xbe53af71	-0.20672394
18	0xbf39a2bc	-0.7251394
19	0xbeb5fe6d	-0.35545674
20	0x3ed4937a	0.41518766
21	0xbf301481	-0.68781286
22	0xbf28e36f	-0.65972036
23	0xbee26d1c	-0.4422387
24	0xbf0f40ea	-0.55958426
25	0x3f15b490	0.5847864
26	0x3f06bb05	0.5262912
27	0xbf0ee685	-0.55820495
28	0x3f10abf0	0.56512356
29	0xbe65a642	-0.22426704
30	0x3fa289ad	1.2698265
31	0x3f898cb6	1.0746067

layers.6.running_mean f4 [32]
0	0x3fbb9f69	1.4658023
1	0x3f83c65e	1.0294912
2	0x3f3197e2	0.6937238
3	0x4201b9c7	32.431423
4	0x402188b4	2.5239687
5	0x419de8bd	19.738642
6	0x4243d8c8	48.9617
7	0x3f05acda	0.52216876
8	0x421c1cad	39.028004
9	0x4008ca1c	2.1373358
10	0x3f93de15	1.1552149
11	0x3ff90426	1.9454391
12	0x4273bd98	60.93515
13	0x41954c95	18.662394
14	0x4012d426	2.2941985
15	0x421da11c	39.407333
16	0x407a25ad	3.9085495
17	0x3fe9d52b	1.8268179
18	0x421ab6e0	38.67859
19	0x4189a0d5	17.203531
20	0x3faddf2f	1.3583735
21	0x421a6c58	38.605804
22	0x3ff0dcc0	1.8817368
23	0x3e0fabd1	0.14030387
24	0x3fa34758	1.2756147
25	0x42358eb1	45.389347
26	0x3f87ca8d	1.0608689
27	0x3fdee757	1.7414349
28	0x3fe7743c	1.8082347
29	0x40063346	2.0968795
30	0x3f7050c6	0.9387325
31	0x3fed9d53	1.8563637

layers.6.running_var f4 [32]
0	0x428733e3	67.60134
1	0x428aec15	69.4611
2	0x41a71614	20.88578
3	0x430b9d77	139.6151
4	0x4321db8b	161.85759
5	0x431be644	155.89948
6	0x4383b189	263.387
7	0x41a13427	20.150465
8	0x42e0ec2f	112.461296
9	0x431785bc	151.5224
10	0x42a5a416	82.82048
11	0x43014f11	129.30885
12	0x43ad2b30	346.3374
13	0x42acd471	86.414925
14	0x42ec6eb5	118.216225
15	0x42d68ef7	107.27923
16	0x43b48034	361.0016
17	0x42c51346	98.53764
18	0x42e836ac	116.10678
19	0x4320a6e6	160.65195
20	0x42d39add	105.80247
21	0x42f2d5aa	121.41731
22	0x430f78ac	143.47137
23	0x4069cf51	3.6532786
24	0x422c33e1	43.050663
25	0x4331e7b3	177.90508
26	0x4238abdc	46.16783
27	0x422f267c	43.787582
28	0x42cb2cda	101.5876
29	0x42aad368	85.4129
30	0x420b7af8	34.870087
31	0x434059dc	192.35101

layers.7.weight f4 [32, 32, 3, 3]
0	0xbe812034	-0.25219882
1	0xbe1bf946	-0.15231809
2	0xbd9c4ffb	-0.076324426
3	0xbe81be1a	-0.25340348
4	0xbe551647	-0.2080928
5	0xbe9f7672	-0.31145054
6	0xbebd2bdb	-0.36947522
7	0xbebdeaaf	-0.37093112
8	0xbd030579	-0.03198764
9	0xbd859813	-0.065231465
10	0xbee13990	-0.4398923
11	0xbde77177	-0.113009386
12	0x3d0adacc	0.033900067
13	0xbef8c9fe	-0.48591608
14	0xbea26cca	-0.31723624
15	0xbf440eee	-0.7658528
16	0xbd7711d5	-0.06031974
17	0xbd9868dd	-0.07441876
18	0x3e583e3b	0.21117489
19	0x3eb85b69	0.3600724
20	0x3e80f977	0.25190327
21	0x3ed2ced5	0.41173425
22	0xbb75add3	-0.003748764
23	0x3e9545b6	0.29154748
24	0x3ea8cdfb	0.3296965
25	0x3cd68f7c	0.026191466
26	0x3e358b76	0.17728981
27	0x3d997951	0.074938424
28	0x3e76fa9e	0.2411904
29	0x3e92063e	0.28520387
30	0x3e8a0544	0.26957142
31	0x3e12ade8	0.14324152
32	0x3e37b2f7	0.17939363
33	0x3eebda54	0.4606501
34	0x3ebddb40	0.37081337
35	0x3eb78765	0.35845485
36	0xbe233884	-0.15939528
37	0x3d150a63	0.03638686
38	0xbcc5cff2	-0.024147008
39	0xbebf53e4	-0.3736869
40	0xbccc9571	-0.024973603
41	0xbd8ce9d2	-0.06880535
42	0xbd64af25	-0.055831093
43	0xbd8365ab	-0.06415876
44	0xbe005ecd	-0.12536164
45	0xbf037fc3	-0.51366824
46	0xbeeda157	-0.46412155
47	0xbec90e5c	-0.39268768
48	0xbf28e57b	-0.6597516
49	0xbe977fc5	-0.29589668
50	0xbeaad386	-0.33364505
51	0xbed32dca	-0.41245872
52	0xbe903516	-0.281655
53	0xbec8396b	-0.39106306
54	0xbe569503	-0.20955281
55	0xbe8b535a	-0.2721203
56	0xbb1f92bf	-0.0024348942
57	0x3cd06172	0.02543709
58	0xbdacbf68	-0.08434945
59	0xbe813b35	-0.25240484
60	0xbe269809	-0.16268934
61	0xbdf295ab	-0.11844953
62	0xbd696730	-0.056983173
63	0x3e42573e	0.18978593
64	0x3e1f9114	0.15582687
65	0x3e8dbb68	0.27682042
66	0x3e006dc9	0.1254188
67	0xbcfdd3d9	-0.030984806
68	0x3e8ae4eb	0.27127776
69	0x3da6755b	0.081278525
70	0xbd345b5b	-0.044032436
71	0x3ea48da3	0.3213931
72	0x3f376e18	0.71652365
73	0x3eb09b3e	0.3449344
74	0x3e921a29	0.28535584
75	0x3e11f19b	0.14252321
76	0x3e8f1b96	0.27950734
77	0x3d1eb7fc	0.03874968
78	0x3e542ee6	0.20721015
79	0x3eb61f8e	0.3557095
80	0x3e2759cd	0.1634285
81	0x3ee07a33	0.4384323
82	0x3e913bf4	0.28366053
83	0x3f08012f	0.53126806
84	0x3ee0c6cd	0.43901673
85	0x3e992c46	0.2991659
86	0x3ecede45	0.40403953
87	0xbd4099ab	-0.04702155
88	0x3efba10a	0.491463
89	0x3ef2cfaa	0.4742406
90	0x3d2e7cdd	0.042599548
91	0x3e15a60f	0.14614128
92	0x3e6df4ad	0.23237868
93	0x3e198f1e	0.14996001
94	0x3e00eeb9	0.12591065
95	0x3ea02c73	0.31283912
96	0x3cb4eff2	0.022087071
97	0x3ca4195e	0.020031627
98	0x3e802bc2	0.25033385
99	0xbe837960	-0.2567854
100	0xbe7d300d	-0.24725361
101	0xbe929b96	-0.28634328
102	0xbec74298	-0.38917994
103	0xbe972876	-0.29523057
104	0xbe654189	-0.22388281
105	0xbe9a5ef4	-0.30150568
106	0xbeacb173	-0.33729133
107	0xbe61c994	-0.22049552
108	0x3f120850	0.57043934
109	0x3ee35225	0.4439861
110	0x3e989839	0.29803637
111	0x3ef9af41	0.4876652
112	0x3ebc28a2	0.3674975
113	0x3e89ab9b	0.26888737
114	0x3ebaf2c6	0.36513346
115	0x3eb2905e	0.34875768
116	0x3ecd812c	0.40137613
117	0x3ed7b63c	0.4213122
118	0x3df6f790	0.120589375
119	0x3e85a173	0.26099738
120	0x3e35665a	0.17714825
121	0x3ea5ecc0	0.32407188
122	0x3e8ab5c3	0.27091798
123	0x3d88807f	0.06665134
124	0x3ef10e91	0.47081426
125	0x3f00a02e	0.50244415
126	0xbe22d00b	-0.15899675
127	0xbea687db	-0.32525524
128	0xbeafe6ce	-0.34355778
129	0xbe98b8bf	-0.2982845
130	0xbbab60b0	-0.005230032
131	0xbeb3a799	-0.35088804
132	0xbd8a7be3	-0.06761911
133	0xbe536f45	-0.20647915
134	0xbedb700f	-0.4285893
135	0x3e5eb833	0.21749954
136	0xbeea780a	-0.45794708
137	0xbec13a2e	-0.377397
138	0x3dd8f5c6	0.105937526
139	0xbef932bf	-0.4867153
140	0xbe9568ba	-0.29181463
141	0xbf23fc7d	-0.6405714
142	0xbeb4859a	-0.3525818
143	0xbed1803d	-0.4091815
144	0x3e0e659f	0.13905953
145	0xbe5526e9	-0.20815624
146	0xbe61f5f8	-0.22066486
147	0xbe4bbbd9	-0.19895877
148	0xbdef658e	-0.11689292
149	0xbcb92a5b	-0.022603204
150	0xbe3112e0	-0.17292356
151	0xbea7aba4	-0.3274814
152	0xbe3f3cc0	-0.18675518
153	0xbedc2dc6	-0.43003672
154	0xbf0df46a	-0.5545107
155	0xbf58ed23	-0.8473684
156	0xbec1a16c	-0.37818468
157	0xbeabcf6a	-0.33556682
158	0xbf059f1b	-0.521959
159	0xbf113214	-0.5671704
160	0xbe921493	-0.28531322
161	0xbf0cce28	-0.5500207
162	0x3e141a82	0.14463237
163	0x3dd4be71	0.10387886
164	0x3ea6db17	0.32589027
165	0x3ef8070f	0.48442885
166	0x3e88e32e	0.26735824
167	0x3eb60732	0.35552365
168	0x3dbde7d9	0.09272737
169	0x3ed5ae54	0.41734564
170	0x3ec96c83	0.393406
171	0x3dc6f369	0.097143956
172	0xbbca6153	-0.0061761527
173	0xbe9a098e	-0.30085415
174	0x3ddc87e2	0.10768105
175	0x3c5a5d42	0.013327898
176	0xbe8759f9	-0.2643583
177	0x3afc2186	0.0019236065
178	0xbe18fbab	-0.14939754
179	0xbe8a9283	-0.27064905
180	0xbdfd607b	-0.12371918
181	0xbd5fc641	-0.05463243
182	0xbb197a9b	-0.0023419026
183	0xbe16edc9	-0.14739145
184	0x3d7c7a1b	0.061639886
185	0xbd486ea8	-0.048933655
186	0xbd12858b	-0.035771888
187	0x3e3a1355	0.18171437
188	0xbd0af772	-0.03392739
189	0x3e8f8e3a	0.28038198
190	0x3e846434	0.258577
191	0x3e39179a	0.1807541
192	0x3e91a3ce	0.28445286
193	0x3e1169c1	0.14200498
194	0x3efecb02	0.49764258
195	0x3eb8aeb9	0.36070803
196	0x3e73655a	0.23769131
197	0x3ef40b6c	0.47664964
198	0x3e387162	0.18012002
199	0x3e052c9b	0.13005297
200	0xbd52da73	-0.05147786
201	0x3e7f0e5a	0.24907818
202	0x3d15a10a	0.036530532
203	0x3d9d3b81	0.07677365
204	0x3d9a70a1	0.075410135
205	0xbd8d733a	-0.06906743
206	0x3e81a8c7	0.2532408
207	0x3e72c1a9	0.23706688
208	0x3e0207df	0.12698315
209	0x3e3980b9	0.1811551
210	0x3e3944ef	0.18092702
211	0x3e2edad4	0.17075664
212	0x3e570b0e	0.21000311
213	0x3de5c44b	0.112190805
214	0xbd08a0a0	-0.03335631
215	0x3e8592bd	0.26088515
216	0x3f1c1d0c	0.6098182
217	0x3eeb463f	0.4595203
218	0xbc843c7c	-0.016142122
219	0x3f0c9c5a	0.54926074
220	0x3e3dbc3e	0.1852884
221	0x3e44add6	0.19206938
222	0x3e3d5c23	0.18492179
223	0x3e7e7dfb	0.24852745
224	0x3e87b876	0.2650792
225	0xbdef710c	-0.11691484
226	0xbee01162	-0.43763262
227	0xbe4899cf	-0.19589923
228	0xbe0b33e0	-0.13594007
229	0xbf0be11e	-0.54640377
230	0xbea342f8	-0.3188703
231	0xbf0c9d10	-0.5492716
232	0xbec26ff2	-0.37976032
233	0xbeb26bdf	-0.34847924
234	0xbf0cfecf	-0.5507631
235	0xbe08598b	-0.13315408
236	0xbf175665	-0.591162
237	0xbe615524	-0.22005135
238	0x3e1f7886	0.1557332
239	0xbe3042ae	-0.17212936
240	0xbe18fe96	-0.14940867
241	0xbd2977cf	-0.041374024
242	0xbe11d072	-0.14239672
243	0x3e94e3d2	0.29080063
244	0x3e886746	0.2664129
245	0x3e4f9356	0.20271048
246	0x3e9223f7	0.28543064
247	0x3e938796	0.2881438
248	0x3eb4e6ea	0.35332423
249	0x3e2079c7	0.15671454
250	0x3e86c215	0.26319948
251	0x3ecb37e5	0.39691082
252	0xbe2bbe1f	-0.16771744
253	0xbe835ac1	-0.25655177
254	0xbe96a06f	-0.29419276
255	0xbe26c20d	-0.16284962

layers.7.bias f4 [32]
0	0xbf7b8d87	-0.9826283
1	0xbe5c6155	-0.21521504
2	0xbf3fbaaf	-0.7489423
3	0xbf0e7a34	-0.5565522
4	0xbf1513b9	-0.5823322
5	0xbf2513c7	-0.644833
6	0xbf64007d	-0.89063245
7	0xbf001347	-0.50029415
8	0xbf0f561b	-0.5599076
9	0xbf108efb	-0.5646817
10	0xbe9d6f74	-0.30749094
11	0xbe5ecb5a	-0.2175726
12	0xbf2fccf5	-0.68672115
13	0xbeb22c3d	-0.34799376
14	0xbf4e02f9	-0.80473286
15	0xbf7fa679	-0.9986339
16	0xbf0ed7d8	-0.557981
17	0xbf10b1cf	-0.56521314
18	0xbf0e18c3	-0.55506533
19	0xbefd1865	-0.49432674
20	0xbf60a6d8	-0.87754583
21	0xbf598172	-0.8496314
22	0xbf541fcd	-0.82861024
23	0xbf89606d	-1.0732552
24	0xbf459dc9	-0.77193886
25	0xbf5980ed	-0.8496235
26	0xbf273bc6	-0.6532558
27	0xbf17c044	-0.5927775
28	0xbf1c3cfe	-0.61030567
29	0xbf3f66b6	-0.747661
30	0xbf91d840	-1.1394119
31	0xbf2c2866	-0.67249143

linear.weight f4 [4, 12802]
0	0x3c12e140	0.008964837
1	0xbbd10211	-0.00637842
2	0x3e828cb8	0.25497985
3	0x3eb65639	0.35612658
4	0x3e3f6b28	0.1869322
5	0x3ec11820	0.37713718
6	0x3f0f0a18	0.55874777
7	0x3e894251	0.26808408
8	0x3e7d402a	0.24731508
9	0x3eca3c97	0.3949935
10	0x3e3be643	0.18349557
11	0x3ddd9c56	0.10820834
12	0x3dd11905	0.1020985
13	0xbd03a798	-0.03214225
14	0x3d456a0f	0.04819685
15	0x3e8a1103	0.26966104
16	0x3e6b8e78	0.23003566
17	0x3e5ba1b8	0.2144841
18	0x3e546d05	0.20744713
19	0x3e499a5c	0.1968779
20	0x3e7a462b	0.2444083
21	0xbce10758	-0.027469322
22	0xbd21ed9e	-0.03953325
23	0xbeb37f83	-0.3505822
24	0x3d7a6938	0.0611355
25	0xbd9c10e9	-0.07620413
26	0x3e38f256	0.18061194
27	0xbd4d51c9	-0.050126825
28	0xbcb43255	-0.021996656
29	0x3e1433df	0.14472912
30	0x3e121868	0.14267123
31	0x3e4248ef	0.18973134
32	0x3d0ef504	0.034901634
33	0xbe1fc3d2	-0.15602043
34	0xbd7c6ed1	-0.06162912
35	0xbd31c2c9	-0.043398652
36	0x3dc64d30	0.09682691
37	0xbe28b06c	-0.1647355
38	0x3cc20ac0	0.023686767
39	0x3da42c07	0.0801621
40	0x3e55a5d5	0.20864041
41	0xbd4f7c40	-0.050655603
42	0x3dd5a1cf	0.10431253
43	0xbe3e74fa	-0.1859931
44	0x3e96b656	0.29435986
45	0x3e6dea06	0.23233804
46	0x3eb52de0	0.35386562
47	0xbe2c8235	-0.16846545
48	0xbdad8738	-0.084730566
49	0x3daad59c	0.08341524
50	0x3ea50161	0.32227615
51	0x3e22a11f	0.15881775
52	0x3d1589da	0.03650842
53	0xbddb7816	-0.10716264
54	0xbe884c3b	-0.2662066
55	0x3e54ae59	0.20769633
56	0x3c94dfc5	0.018173108
57	0xbe35e1b1	-0.17761876
58	0x3eaad84e	0.33368152
59	0xbd639e07	-0.05557063
60	0x3e48f70f	0.19625495
61	0x3caf1bc1	0.021375539
62	0x3bd20d7a	0.006410298
63	0x3e8f54e2	0.27994448
64	0x3f14a47b	0.5806348
65	0x3d72252f	0.059117492
66	0xbd4bd196	-0.049760424
67	0xbdf1da24	-0.11809185
68	0x3cd77c60	0.026304424
69	0x3c28996d	0.010290486
70	0x3e3d2e0e	0.184746
71	0x3cfaf39c	0.03063374
72	0x3c9c0e38	0.019049749
73	0xbdccdee5	-0.10003451
74	0xbe9b4517	-0.3032615
75	0x3e3d3999	0.18479003
76	0xbd8537ae	-0.06504761
77	0x3e69281e	0.2276921
78	0x3e141c3c	0.14463896
79	0xbdc64a99	-0.09682197
80	0x3e6dc5f5	0.23220046
81	0x3cb1648b	0.021654388
82	0xbb693ffc	-0.0035591116
83	0x3ca31c20	0.019910872
84	0x3da30e89	0.07961757
85	0x3e0e8c6f	0.13920759
86	0x3d9e7a5f	0.07738184
87	0x3e4b5e05	0.19860084
88	0x3db2ddeb	0.08733734
89	0x3b8af7bc	0.004240958
90	0x3d27ef3d	0.04099964
91	0x3c8f932b	0.01752623
92	0xbd80e964	-0.06294516
93	0x3e349b6c	0.17637414
94	0x3ece0f62	0.4024611
95	0xbd25982c	-0.040428326
96	0xbe9f7a5c	-0.3114804
97	0x3e393bc8	0.18089211
98	0x3d281e13	0.041044306
99	0x3c8f9a85	0.017529735
100	0x3e64fa6f	0.22361158
101	0x3d66ba6a	0.056330122
102	0x3e19d176	0.1502131
103	0x3e49b73b	0.19698803
104	0xbeb450bd	-0.35217848
105	0xbd8becac	-0.06832251
106	0x3d2eecfb	0.04270647
107	0x3b148446	0.002266185
108	0x3d5a6b2f	0.053324874
109	0x3e03140c	0.12800616
110	0x3d345654	0.04402764
111	0xbe5c3172	-0.21503237
112	0xbe1ac80f	-0.15115379
113	0x3ed29382	0.41128165
114	0x3e6016e3	0.2188373
115	0xbaeb478c	-0.00179504
116	0x3dc08f1f	0.09402298
117	0x3c66d58f	0.014089002
118	0x3dc48dca	0.095973566
119	0x3c057c8f	0.008147373
120	0x3e6eb73a	0.23312083
121	0x3ca5ff87	0.020263446
122	0x3e676bce	0.22599718
123	0x3dfd8375	0.12378589
124	0xbe783edb	-0.24242727
125	0xbc556f4a	-0.013027022
126	0xbe8e5344	-0.27797902
127	0xbe83bce3	-0.25730047
128	0xbf098bc4	-0.5372889
129	0x3e29814a	0.16553226
130	0x3dc883f4	0.09790793
131	0xbe0284d8	-0.12745988
132	0x3ea74a5a	0.32673913
133	0x3d266eed	0.04063313
134	0x3ec7c59c	0.3901795
135	0x3ae3c448	0.0017377222
136	0x3f087e63	0.5331785
137	0x3d16380f	0.036674555
138	0x3de970b6	0.11398451
139	0x3daf8c0d	0.085716344
140	0x3e677585	0.22603424
141	0x3e0c9c5f	0.13731526
142	0xbecf44d1	-0.4048219
143	0xbef55c60	-0.4792204
144	0x3e42cb83	0.19022946
145	0xbdd4e743	-0.10395672
146	0xbec744a0	-0.38919544
147	0xbd9c8cad	-0.07644019
148	0xbeefcdd8	-0.46836734
149	0xbe43fcd8	-0.19139421
150	0x3f24010e	0.6406411
151	0x3dba8eeb	0.09109291
152	0x3dc1f084	0.09469703
153	0x3ea81c41	0.32834056
154	0x3e5ab05c	0.21356338
155	0x3d386ce2	0.045025714
156	0xbcc45114	-0.023964442
157	0x3ba967bb	0.0051698363
158	0x3df491a3	0.119418405
159	0x3e735b66	0.23765334
160	0x3e6fa432	0.2340248
161	0x3e1dc1bf	0.1540594
162	0xbe9fc83d	-0.31207457
163	0xbe9c920b	-0.30580172
164	0xbe0190f4	-0.12652951
165	0x3eda3086	0.42615145
166	0xbe498bd9	-0.19682254
167	0xbec3f410	-0.38272142
168	0xbe02809d	-0.12744375
169	0x3e01e736	0.12685856
170	0x3ed17bb2	0.40914685
171	0x3e493ef1	0.19652916
172	0xbd3252f1	-0.04353613
173	0x3df69809	0.12040717
174	0x3e8206b9	0.25395754
175	0x3d92faaf	0.0717672
176	0x3d6d4e20	0.057935834
177	0x3df07ddf	0.11742758
178	0x3db76c36	0.089561865
179	0x3e0717bf	0.13192652
180	0x3e17ee72	0.14837053
181	0x3e38cb80	0.18046379
182	0xbea4ea5d	-0.32210055
183	0xbdaa7eef	-0.08324992
184	0x3d0b0591	0.033940855
185	0xbd690290	-0.05688721
186	0xbe0cd891	-0.13754489
187	0xbf1a1a8c	-0.6019676
188	0x3ec96c9d	0.39340678
189	0x3e35fd8f	0.17772506
190	0xbeb9d391	-0.36294225
191	0x3dfcff77	0.123534136
192	0x3e1c2e24	0.15251976
193	0xbe62b831	-0.22140576
194	0xbd5bb6ba	-0.05364106
195	0x3d2d1793	0.04225881
196	0x3d97ee37	0.07418483
197	0x3cbb6ac7	0.022878064
198	0x3d76b021	0.060226563
199	0x3e262578	0.1622523
200	0x3d6a8a26	0.057260655
201	0x3e70449c	0.23463672
202	0xbde30fd9	-0.11087007
203	0xbea71ea3	-0.3264056
204	0x3f1d123f	0.61355966
205	0x3ddd7ff3	0.1081542
206	0xbe303772	-0.1720865
207	0xbf093076	-0.5358957
208	0x3e5f9479	0.21833982
209	0xbf190e30	-0.59787273
210	0xbf1491b3	-0.5803482
211	0xbf031348	-0.51201296
212	0xbe5d75a5	-0.21626909
213	0xbe757dbe	-0.23973748
214	0x3e511419	0.20417823
215	0x3ec18feb	0.37805113
216	0x3f858a25	1.0432783
217	0x3ec9d9d5	0.39424005
218	0x3e2ce0d1	0.16882636
219	0x3e54e410	0.20790124
220	0x3e937a47	0.28804228
221	0x3e563bd4	0.2092126
222	0x3d354fc9	0.044265542
223	0x3df0b91d	0.117540576
224	0x3deb02e8	0.11475164
225	0x3e210b56	0.1572698
226	0xbe2364a7	-0.15956365
227	0xbf2cb934	-0.674701
228	0x3e98e4ed	0.29862157
229	0xbd5eefc2	-0.05442787
230	0xbe04845e	-0.12941119
231	0xbdd81491	-0.10550798
232	0x3f8e0501	1.1095277
233	0x3f55f526	0.8357719
234	0x3f62ed47	0.88643306
235	0x3e4f492f	0.20242761
236	0xbcc12966	-0.02357931
237	0x3c153396	0.009106537
238	0x3e18bb2b	0.14915149
239	0xbbff54db	-0.007792098
240	0x3e9b4430	0.3032546
241	0xbd53eed8	-0.05174145
242	0x395ab261	0.00020856551
243	0x3d91c2f7	0.07117265
244	0x3f423093	0.7585537
245	0x3ed56057	0.41675064
246	0x3ddb8042	0.107178226
247	0xbebafba1	-0.36520103
248	0x3e4a565c	0.19759506
249	0x3e8d4b2d	0.27596417
250	0x3f120035	0.57031566
251	0xbde1b5f8	-0.11021036
252	0xbc185d01	-0.009299518
253	0x3dc72000	0.097229004
254	0xbe0b9bec	-0.13633698
255	0x3eea5661	0.45769027

linear.bias f4 [4]
0	0x402341f3	2.5509002
1	0xc137203e	-11.445372
2	0xc13f8851	-11.97078
3	0x403b1c91	2.9236186
