Models/20x20_LR=0.0001/best.pth (torch, 267733 bytes, 16 tensors)

layers.1.weight f4 [16, 1, 3, 3]
00000000: 6e6b 423e 2e06 debd 8d5f 56be 8a69 203e
00000010: dc19 6dbe 3a07 35be 508d 373d 70a0 0b3d
00000020: dc45 c0bd 104a 633e 3cba b2be 1048 053e
00000030: 3854 b9be e020 9f3c 44cb 14bf 90df 103e
00000040: 13a5 9c3d 9c1d 113e 951b e5bd a868 81be
00000050: 5633 673d 6adf c5bd 7003 c13e 2717 ae3e
00000060: 28b6 acbd 427c a8bd 7a98 023d a9f8 94be
00000070: 030e 8ebe e1d7 d7bd e907 04bf c7bd 48be
00000080: 3098 b2be 48db 133e 8451 07bf c952 9abe
00000090: 79d5 e33d 4e10 74be 75b6 d3ba 712f 9bbd
000000a0: 19b2 3abe 4e08 9ebc 146f 43be e52f 613e
000000b0: 0c04 82bd ecb7 04bd 087b 5cbe 10e2 5ebe
000000c0: 5cce 803d 8745 afbd 0110 753e 93c5 88bd
000000d0: 80ca 813e 01a8 2c3e 3241 e63d 9316 9abe
000000e0: b451 3dbe 8416 c7be a33d f13d 84b7 08be
000000f0: 4878 773e b201 c9be 3bc1 613d 8188 9d3e
00000100: 3c68 103e 6562 00bf c0eb eebd b6f9 2f3e
00000110: b0eb 40be c724 62bd 0a10 61bd 9574 7c3e
00000120: 9165 633e 3144 283d 0bec 733e 643a 643e
00000130: 9a5a 82be b771 37be 325c a0bd edf7 e83d
00000140: a8e3 853e 4488 9e3e ff34 91be 8c7d cf3e
00000150: 30dd 543e d099 903e 4a1e 533e a429 343e
00000160: aeaa a0be 81d6 8abe 9db8 283d 0022 adbe
00000170: dd30 f1bc 70f1 433e 92a0 c53e d560 a8be
00000180: 9c8e 13be 51e5 a43d 196e 443d 625e babe
00000190: ba92 b2be ec4d 863e 5385 123e 3e6b 983d
000001a0: 2578 67be 6456 4a3d cf4f 063e c193 48bd
000001b0: 7613 0cbe 4eca 2ebe 5a50 e0bd b967 02be
000001c0: f8d9 64be f39f 0f3e d0f3 863e b895 95be
000001d0: 371d 663d e595 773c 5a2e 3abe ecdd 733d
000001e0: cfd3 6e3d ccaa 03bf 37c7 90be a461 143d
000001f0: 0a31 973e b856 a2be da03 23bd eca7 82be
00000200: 22ae 57be 8266 1b3e 8015 c93e d7b3 433c
00000210: c53c f63d 49e2 d13d 57f0 bb3c c1dd b8bd
00000220: 4792 90be 1583 4fbe 2d6b b03c 3cae 0dbd
00000230: f108 373e b0e0 9dbd 3cf2 983e 3339 733e
0.18986294 -0.108410224 -0.20934887 0.1566526 -0.23154396 -0.17678538 0.0448125 0.034088552
-0.093883246 0.22196221 -0.3490771 0.13015771 -0.36197066 0.019424856 -0.5812266 0.14147782
0.07648673 0.14171451 -0.111869015 -0.2527516 0.056445442 -0.096617535 0.37697935 0.3400204
-0.08433181 -0.08226825 0.031883694 -0.29095963 -0.27745065 -0.105392225 -0.5157457 -0.19603644
-0.34881735 0.14439118 -0.5285876 -0.30141285 0.11124701 -0.23834345 -0.0016152399 -0.07577408
-0.18232001 -0.01929107 -0.19085342 0.21990927 -0.06348428 -0.032401964 -0.21531308 -0.21765924
0.0628936 -0.08558183 0.23931886 -0.06678309 0.25349808 0.16860963 0.11242904 -0.30095348
-0.18488199 -0.38884366 0.117793344 -0.13351256 0.24166977 -0.39259106 0.05511592 0.30768207
0.14102262 -0.5015014 -0.116660595 0.17185101 -0.18839908 -0.055210855 -0.054946937 0.24653848
0.22206713 0.041080657 0.23820512 0.222879 -0.25459749 -0.17914473 -0.07830085 0.11375413
0.2615025 0.30963337 -0.28360745 0.40525472 0.20787501 0.2824235 0.20617023 0.1759401
-0.31380218 -0.27116778 0.041191686 -0.33815002 -0.029442245 0.1913507 0.38599068 -0.32886377
-0.1440987 0.08051551 0.04795656 -0.36400133 -0.34877568 0.26231325 0.14308672 0.0744233
-0.22604425 0.049398795 0.13116382 -0.048969034 -0.13679299 -0.1706936 -0.10952826 -0.1273488
-0.22348773 0.1402586 0.2635789 -0.2921579 0.056180205 0.015111421 -0.18181744 0.059537813
0.058307465 -0.5143249 -0.2827699 0.03622593 0.295296 -0.31706786 -0.039798595 -0.2551874
-0.2106252 0.15175822 0.39274216 0.011944733 0.120233096 0.102482386 0.022941751 -0.09026671
-0.282366 -0.20264848 0.02153548 -0.03458999 0.17874505 -0.07708871 0.2987231 0.23752289

layers.1.bias f4 [16]
00000000: 4644 c0be 73bb 91be 1964 b73d 8f70 133e
00000010: 94fe e9be 79b0 a03e 6aa4 8a3d df42 0bbf
00000020: 4053 fb3c 677d b23e 88c9 693e 0ab1 833d
00000030: 28e0 09bf 2c83 c03d b5ed 553e 3c30 82bd
-0.37552088 -0.28463325 0.08954639 0.14398406 -0.4570204 0.31384638 0.06769641 -0.5439891
0.030679345 0.348613 0.22830784 0.06430252 -0.5385766 0.09400019 0.2089146 -0.06356856

layers.3.weight f4 [16]
00000000: 7fca 5e3f 8662 8b3f 6b25 803f debe 8e3f
00000010: d021 773f 35f2 7a3f fa19 963f 598c 8d3f
00000020: a815 703f 26b4 5a3f 95f6 5a3f ca53 6d3f
00000030: 4a07 7b3f 0a24 883f c0ed 523f f978 593f
0.87027735 1.0889442 1.0011419 1.1151998 0.9653597 0.9802583 1.1726677 1.1058456
0.93783045 0.85431135 0.85532504 0.92705977 0.98058 1.0635998 0.8239403 0.84950215

layers.3.bias f4 [16]
00000000: 19e3 b93d ee79 d83d 0c96 973c 4332 10be
00000010: 15b5 8f3d 8f1c 083d c484 353e ceeb 073e
00000020: 5107 b33d ffd6 7b3d a879 283e 755a 3b3d
00000030: a511 493c 86e7 d43d a07e 123e f1a1 9a3d
0.090765186 0.10570131 0.018504165 -0.14081673 0.070169605 0.03323036 0.17726427 0.13273546
0.0874163 0.061484333 0.16452658 0.045740563 0.012272273 0.10395722 0.14306116 0.07550419

layers.3.running_mean f4 [16]
00000000: b28c a93c 33dd 013d fabb 193e 76be a33e
00000010: 872f f73b 841f bb3e 5b25 143e 1ef4 213d
00000020: 4670 dc3d 0ea0 dc3e bd14 883e 45b9 fb3d
00000030: 2c0e e53b b065 2d3e 0814 843e 008e 9f3d
0.020696972 0.031705093 0.15013114 0.31981248 0.0075435075 0.36547482 0.14467375 0.03953945
0.10763602 0.43090862 0.26578322 0.12291197 0.006990215 0.16933322 0.25796533 0.07790756

layers.3.running_var f4 [16]
00000000: f0fb f83c 185d 333d 134a 903e 8267 3c3c
00000010: f46b a93b 0433 3a3e 9c5f 393c 70f7 833d
00000020: 7f7b 7f3e e413 123f 9d10 843d 41b0 453d
00000030: def9 c23b 9c1f 6c3c b5e4 5d3e 9cea 623e
0.03039357 0.043789953 0.28181514 0.011499288 0.0051703397 0.18183523 0.011314299 0.06443679
0.24949454 0.570616 0.06448481 0.048263792 0.0059501966 0.014411833 0.21669276 0.22159809

layers.4.weight f4 [32, 16, 3, 3]
00000000: f3ce 523d 2f9c 623c d500 a3bd 377b a33d
00000010: eb5b db3d 76a9 73bd dce8 703c 754c 00be
00000020: 78b1 6c3e 284e 0c3c 5fa6 073d 1cf4 623d
00000030: 7667 8f3d c5ce 333e 70df 1a3d 377e e5bd
00000040: 800f 8b3d 4626 b2bd f2d4 fabc 5f91 b43d
00000050: 393e ca3d b422 b6bd 56ff 45bd 2fcc 2ebe
00000060: 9450 003e 4ade aebd 984c 5f3b a64f 06be
00000070: 993d b23c 0a8b 03be e492 c73c 3e97 30be
00000080: 1ea6 343e 4a60 1ebe 276d 203d ccc6 593b
00000090: 32ba 99bc 5a76 e8bd b4d4 c33d e377 b93d
000000a0: 32a6 f93d 7d41 49bd 6b05 25bd a0b4 e33d
000000b0: 34db f7bc b245 bb3b 7bb7 9dbd a302 933d
000000c0: efd3 553d 2690 a83d 67fc f6bd dec3 513d
000000d0: 1905 f83d bee8 09bd 8286 24be 3ffc 533d
000000e0: 53b9 343d 2dbc bc3d 09d8 c0bc 555e 5f3e
000000f0: 24cf 5cbc e8c8 d93d b62a 303c c86d 35be
00000100: 51fa 71bc f2fb ddbd b907 723e 0ec9 f1bd
00000110: 1c5f 16be 59bc 39bc 3905 44bc 775f 3fbe
00000120: 06f8 e2bb 4221 973a b3c8 0ebe 9487 f23d
00000130: bfcd 6a3d 4190 fb3d 2ff3 10be 4248 27be
00000140: d21b 023c a5e5 473d d053 233d 21e1 863d
00000150: 6e03 0f3e d750 163d 5461 e53d 6e02 063b
00000160: 95ff 60bd 1ba8 be3d d3f4 103e baeb 33be
00000170: 8f1c 02be 4c84 223e ca40 b8bd b433 febd
00000180: dd8f 7b3d cd41 f93d 8fb4 0cbe edef 573e
00000190: 165e 223e ebc0 3abd dcb3 b73d 3f0c 853e
000001a0: 17cd 713e 8b9f 9a3d 71ad 1a3c e683 87bd
000001b0: 9f69 4dbd 5b98 233e 15c0 b03c 0827 ee3d
000001c0: 2da7 afbd 4a75 4f3e 4cbe a23d 5415 04be
000001d0: a0fe 6c3d ffa6 8c3e f220 e8bd 565c e3bd
000001e0: f2ea a03c c586 6e3e 001f d0bd c91f b63d
000001f0: 745b 02be 7368 b8bb ff63 12bc c71f 2ebe
00000200: d382 3bbe a9fb 2b3d b4bf 8e3c b423 5fbd
00000210: 81ed 9a3d b284 0b3e 437d 76bc 6821 c5bd
00000220: 89a3 27bd 8f0d 213c 7806 abbb ea1f e63d
00000230: a5b5 edbc e005 863b 92c5 9abc 0f28 01be
00000240: 0046 eb3d 70e9 513d b844 ae3d fcff 82bd
00000250: 557b 46bd 6a8a 09bd 41c6 dd3d 18db bcbb
00000260: 20e1 34bc 088a 273e c5e2 123e a95f f1bc
00000270: e459 4d3d df33 da3d 0f6f a43d 62e6 093e
00000280: 3974 aa3d f0fd b33d c495 5b3d dd93 df3c
00000290: 75bb 5a3d 3f29 afbb 7dc8 fa3d bb11 033e
000002a0: bd35 023e 71d0 6a3d 74d4 de3d 2d19 3abd
000002b0: 3667 053d 191f a93d d017 823d 10c0 08be
000002c0: e3f2 46bd f23e 9ebd ece9 173d 120a e4bd
000002d0: 4211 aa3d 3d28 81bb 38cc 6c3b 2679 ac3d
000002e0: 25b3 5cbd 17fe 883d 979d 163e 77f3 e83c
000002f0: 7475 4cbb 0f48 7e3d 147b 9d3d 90a5 0f3e
00000300: e8a5 6dbd 285b d83d 4853 be3d 7b0f cf3d
00000310: 8ccf c73d d100 133e ad9a b23d 1cd9 10bd
00000320: 78dd b43d 88e7 493e 6683 39bd 1b31 c93d
00000330: e765 8abe 9d28 923d 1c30 9c3d 3cdd 61bc
00000340: 25cb 053e 4f52 a93d d4c3 fdbb 07ac 7c3d
00000350: 71ee f03d ba44 f33d ca04 1a3e 7829 0d3d
00000360: cd81 a93d 5571 423e ebba 1b3e e946 753d
00000370: 8114 c43d cc51 4b3e 3df5 a43d a3a2 d53b
00000380: 6a01 333e 4921 e73d 1cb1 f23d bf32 973b
00000390: 6b08 943d c1e1 01b9 396f cbbc af06 87bc
000003a0: 4f0e c73c 5267 423e 4acd 1f3e 2de9 b73c
000003b0: 7fef c1bb a723 1f3c eaaa 043e 590b 6ebd
000003c0: b349 c53d dcac 09bd 236a a1bd 8ff2 253e
000003d0: 4180 463e 590e 0abd 06bf 14bd 16a2 de3c
000003e0: 89a2 263c 292c f53d 7912 733d 839b 9f3d
000003f0: 3114 3f3e 29df 1c3d a868 2b3e 487f 463e
0.051466893 0.013831182 -0.07959143 0.07982486 0.10710891 -0.059487782 0.0147039555 -0.12529166
0.23114574 0.008563556 0.03311765 0.055408582 0.070021555 0.17559345 0.037810743 -0.11205714
0.06790066 -0.08698706 -0.030619118 0.0881679 0.09875149 -0.08893338 -0.04833921 -0.17070077
0.12530738 -0.08538492 0.0034072753 -0.13116321 0.021757888 -0.12846008 0.024362035 -0.17245194
0.17641494 -0.15466419 0.039166596 0.0033230064 -0.018765543 -0.11350699 0.09562054 0.0905607
0.12189902 -0.04913472 -0.04028837 0.11118436 -0.030255891 0.0057150954 -0.07701012 0.07178237
0.05220407 0.08230619 -0.12059861 0.051212184 0.12110347 -0.033669226 -0.16066936 0.051754232
0.04412205 0.09215579 -0.023540514 0.21813329 -0.013477121 0.10634023 0.010752371 -0.1771766
-0.014769153 -0.108390704 0.23635758 -0.11805926 -0.14684719 -0.0113364095 -0.011964136 -0.1868876
-0.0069265394 0.0011530297 -0.13943748 0.11842266 0.05732512 0.122833736 -0.14155267 -0.16336158
0.007941203 0.04880299 0.03987485 0.06585909 0.13966152 0.03669819 0.112002045 0.0020448226
-0.054931242 0.09309407 0.14155893 -0.17570391 -0.12706207 0.1587078 -0.089967325 -0.12412205
0.061416496 0.12170754 -0.13740753 0.21087618 0.15856203 -0.045594137 0.08969852 0.25985906
0.23613392 0.07549962 0.009440766 -0.066169545 -0.050149556 0.15976088 0.021575967 0.11628538
-0.08576808 0.20259586 0.079464525 -0.12898761 0.057860017 0.27471158 -0.11334409 -0.11101596
0.01964328 0.23293598 -0.10162163 0.08892781 -0.12730199 -0.0056276857 -0.008934974 -0.1700431
-0.18311624 0.04198805 0.017425396 -0.05447741 0.075648315 0.13624838 -0.015044513 -0.09625512
-0.040927444 0.009829893 -0.005219277 0.11236556 -0.029017279 0.004090056 -0.018893037 -0.12612937
0.11487961 0.051248014 0.08509201 -0.063964814 -0.048457462 -0.033579268 0.108288296 -0.0057634227
-0.011040002 0.16361248 0.14344318 -0.02946456 0.050134555 0.10654425 0.08028995 0.1346679
0.08322949 0.08788669 0.053609625 0.027292186 0.05340143 -0.005345493 0.12245271 0.12799732
0.12715812 0.05732769 0.10880366 -0.045434166 0.032569133 0.082578845 0.06352198 -0.13354516
-0.04857148 -0.077268496 0.03708832 -0.11134733 0.08304073 -0.0039415644 0.0036132466 0.08421545
-0.053881783 0.06689089 0.14708553 0.028436406 -0.0031197937 0.06208044 0.07689491 0.14028001
-0.05801955 0.10564262 0.092932284 0.101103745 0.09756383 0.1435578 0.08720908 -0.0353633
0.08831304 0.19717228 -0.045291327 0.09823819 -0.2703087 0.071366526 0.07626364 -0.013785657
0.13065775 0.08267652 -0.007744292 0.061687496 0.11764229 0.11878343 0.1504089 0.034463376
0.08276711 0.18988545 0.15208022 0.05988208 0.09574223 0.19855422 0.08054588 0.006519632
0.17481008 0.112856455 0.11850187 0.0046142037 0.07228168 -0.00012386499 -0.024833309 -0.01648268
0.024298815 0.18984726 0.15605655 0.022450054 -0.0059184427 0.00971309 0.12955824 -0.05811629
0.09633198 -0.033612117 -0.07881572 0.1620581 0.19384862 -0.03370509 -0.036314987 0.027176898
0.010170587 0.119713135 0.05934379 0.077933334 0.18660046 0.03829876 0.16739142 0.19384491

layers.4.bias f4 [32]
00000000: f1f9 ebbd 0c63 2c3e f2ed 72be e235 8fbe
00000010: 9e33 1dbf 0863 2e3c fda7 3dbe 5794 82be
00000020: e0db b1bb d81b d6bc 5537 dc3c 4e07 163e
00000030: fc10 51be 0b69 8abe 259d 1a3d 35da ffbd
00000040: 037e babd 3a1c 81bd d65e 5b3d 2cbc f5bd
00000050: cbdd 6dbc a1d4 8bbe 031e 95be 5546 3dbd
00000060: c529 c7bd 9f3f 8dbd dce2 80be e9ee c73c
00000070: 486c 433d 2628 11bf 9d88 dcbe 7398 3dbd
-0.11522282 0.16834658 -0.23723581 -0.27970797 -0.61406887 0.010643728 -0.18521114 -0.255038
-0.0054278225 -0.026136324 0.026881853 0.14651224 -0.20416635 -0.27033266 0.03774752 -0.124927916
-0.09106066 -0.06304212 0.05355724 -0.119987816 -0.014518212 -0.2731066 -0.2912446 -0.046209652
-0.09724764 -0.068969004 -0.2517308 0.024405913 0.047710687 -0.56701887 -0.43072978 -0.046287965

layers.6.weight f4 [32]
00000000: 2b30 f03e 48ad 673f 8b54 1c3f 7fcc cf3e
00000010: ed48 c23d 93a6 683f 0154 073f b233 f33d
00000020: e407 813f 5162 df3e 5bb9 943e 7c0e 853f
00000030: 9c56 143f f865 9b3e bdf7 8d3f d57b 233f
00000040: d339 3e3f e75d 283f b6e1 5c3f 1ee9 273f
00000050: 0270 423f dfae e33e 1bec cb3e 9fa6 ca3e
00000060: 6c0d d53e c056 da3e 5c0d cc3e 3fb7 6e3f
00000070: 1844 2a3f 3c72 163e 3749 783e 30dd c03e
0.4691175 0.9049878 0.610665 0.40585706 0.09486566 0.9087917 0.52862555 0.118750945
1.0080533 0.43629697 0.29047665 1.0395045 0.57944655 0.30351233 1.1091229 0.6386083
0.7430698 0.65768284 0.8628191 0.65590084 0.7595216 0.44469354 0.39828572 0.39580247
0.41611803 0.4264431 0.39853942 0.9324836 0.6651015 0.14692014 0.24246679 0.37668753

layers.6.bias f4 [32]
00000000: b90f da3c 86b8 b13e e8ec 0b3e 86cc af3d
00000010: 7512 ccbd 41f7 033e d9e7 b03d a2b5 1dbc
00000020: d229 b83e 4266 19bd 74aa f63c de8c cb3e
00000030: bd4a 0a3e f107 573d 3ed5 c03e b36d 613e
00000040: ef50 503e e83e 853e 738a b53d c2d9 8b3e
00000050: b704 643e 8be2 b03d eb08 cebd 49a0 573d
00000060: 00a2 70be d637 463d f1ea c33d 3637 b03e
00000070: 70bc 123e 1590 943a ef49 e13c 92ef 853d
0.026618825 0.34711093 0.13664591 0.085839316 -0.09964458 0.12887289 0.086379714 -0.009625824
0.35969406 -0.037451036 0.030110575 0.3975591 0.13505073 0.052497808 0.3766269 0.22014503
0.20343374 0.26024556 0.08864298 0.27314574 0.22267424 0.0863696 -0.10060295 0.052643094
-0.23499298 0.048393093 0.09566296 0.34417123 0.14329696 0.0011334444 0.027501075 0.06539835

layers.6.running_mean f4 [32]
00000000: 259f ba3e 1e98 853f 3ae7 243f 22c2 0c3f
00000010: 548d 113e 9a63 9b3e 64bf 9d3e e483 f43e
00000020: 7dc4 063f 80fe a63f 86a7 653f 6ae7 403f
00000030: 1755 963e 787c ba3e 72b7 df3e 067b e83e
00000040: 1053 a63f 4e2c dc3e 09fc 2a3f f689 393f
00000050: a8db 123f a602 253f 6533 843e b29e 733f
00000060: b141 463f 8c9f 913e f087 d93e 8f56 453f
00000070: 1a4c 223f 74c9 9a3e 1f42 b03e 8527 ff3e
0.36449543 1.0437047 0.64415324 0.54983723 0.14214069 0.30349427 0.30810082 0.47756875
0.5264357 1.3046417 0.89708745 0.7535311 0.29361793 0.36423087 0.43694645 0.4540636
1.2994099 0.43002552 0.66790825 0.72476137 0.5736642 0.64457166 0.2582046 0.95164025
0.7744399 0.28442037 0.42486525 0.770852 0.6339737 0.30231822 0.34425446 0.49834839

layers.6.running_var f4 [32]
00000000: 2084 4d40 af81 1441 ef06 b940 3648 8e40
00000010: 12a8 e53f 4319 af3e cb4d 1840 b04a b240
00000020: 6441 2a40 fa30 c041 a183 2441 8d20 9040
00000030: a265 f23f 415c c340 79b9 0640 26b5 3140
00000040: 604b 9941 2480 8c3e 1dc5 663e 6f38 b240
00000050: ba47 8240 40df 0741 f0a6 2140 7e3e 4641
00000060: eb42 1541 5982 2440 416d c940 fd69 ad40
00000070: 668f ee3d 8a76 9340 bbcc 4140 8881 c840
3.2111893 9.281661 5.7820964 4.446315 1.7941916 0.3419896 2.379748 5.571617
2.6602411 24.023914 10.282136 4.5039735 1.8937266 6.1050115 2.1050704 2.7766814
19.161804 0.27441514 0.2253613 5.569389 4.0712557 8.492004 2.525814 12.390257
9.328837 2.5704558 6.2945867 5.419188 0.11648445 4.60822 3.0281208 6.265812

layers.7.weight f4 [32, 32, 3, 3]
00000000: 70c4 8bbb 50d6 65bc b40c 06bd cef9 43bd
00000010: 5256 0b3c 4620 6c3d 2740 483c 7919 fabd
00000020: 8a10 c6bc 1010 eabc 8e34 dbbd 7c18 05be
00000030: 6ba4 90bd 5b42 16bd c5b3 c7bd 8eb2 a9bd
00000040: 8cef b6bb b6c6 cabd b0be 10bd 8418 9abd
00000050: 1bc8 f9bd 4df5 47bd 55d6 10be 4f69 2dbd
00000060: 45f3 273c c9b0 d7bd e615 c23c 68d7 05bd
00000070: 9272 9b3b be9f 7ebd e63f 193d fa8f be3c
00000080: e05c e9bd 2abc c3bc a190 92bd f388 c23c
00000090: 4862 893d b3eb 1f3d 161d ac3d fc41 123d
000000a0: 2421 233d e61c f33d 7deb 92bc 57b7 bd3c
000000b0: 11ba d73d 1ff6 283e a960 95bd 0b12 58be
000000c0: bfed e23d 57f3 efbd 590f eebd a960 053e
000000d0: 18cf e5bd 5bf2 73be ce02 adbd 9fa6 66bd
000000e0: 1a20 353d 9701 823c 3865 373d 13a5 883d
000000f0: 9259 ee3d c24e 7bb9 bdd0 eebc f358 04bd
00000100: 6773 a93d 1a29 4cbc a4c0 f83c d19d bd3d
00000110: c441 4c3d 485c b83c 1f3c a13d 60c8 143c
00000120: 2294 d0bd 23d7 54bd 6e25 f2bd fa47 c7bd
00000130: 5960 32bc 8083 03bd d124 16bc e0e9 99bd
00000140: 0547 36bb a943 1a3d d6bf 803c 86e9 923d
00000150: f8f7 b93d 5bed e93d ac90 9b3d 1b4a 803d
00000160: 50b1 c63d d942 1fbc 205d 8b3d fafc f23d
00000170: 5cf5 943c f9b5 f93d df64 b8bc 8769 923b
00000180: a587 67bd 340a 583d e1bc 523d ea1d 36bc
00000190: 7dd4 783b f633 45bd 6dab c4bc 9e7f 23bc
000001a0: 283d fabc cd57 bfbc ba6d 55bd 7bba 3a3d
000001b0: 097d d53c e922 1ebd 1fbd 25bd 71fe 093d
000001c0: e1a2 4ebd 4bfb 80bc 223e eb3b 7f6e 7abd
000001d0: 12cb dfbb b5d3 a83c bbc7 c7ba 952b f9bd
000001e0: c807 05bb 9a40 68bd fccf a23d 10f2 79bd
000001f0: 751a aebd f41d 9dbd 71b0 ecbb 6eaf d93c
00000200: cfba 93bc f12e 63bd 1053 7fbd ad45 63bd
00000210: 23ab fcbc 4112 9f3c 2e5f d5bc 4db8 323d
00000220: 4e51 d7bc fb2c 65bd 9bad 8abd dd2b 5fbc
00000230: a57c b9bc f55e 883d e4ca 66bd e5b0 3bbd
00000240: 1f18 1a3d e192 16bd 955c c8bc 98b1 ccbd
00000250: a79a b6bd 5814 e1bd e154 f5bc 3060 debc
00000260: 9d18 0d3c dffc c5bd 29d2 e7bd 6116 c1bc
00000270: 0388 bebd 80de 4cbd c49c 97bb 6d14 aabd
00000280: aabc 9bbc 6f8e ad3c baf0 a43d 9d3f 9e3c
00000290: 1b89 01bc 1d64 c03d 8982 4a3c 2b3d aabd
000002a0: e0c5 223d 182f d9bc 3cb6 bebc afb3 b8bd
000002b0: 10bf 8dbd 1304 8ebd 0305 20bd cb8d e7bd
000002c0: 9820 bbbd 15fb 0cbd 6600 8ebc 3989 c9bd
000002d0: f71b 70bc a17a a83d 7ee2 61bb 9a0b c73c
000002e0: f97d 99bd f79d 32bd 152a 0ebc 3af4 85bb
000002f0: 9341 22bd bc1a 36bd 52a8 7dbd 2798 88bd
00000300: df46 e8bc ef4c 04bd 3337 443d f4d2 72bd
00000310: 147d 5abc efe0 38bd 5233 a83c 6a31 6f3c
00000320: 85bc 9e3d 42af 853c 7c65 fe3d b413 43bc
00000330: f1d5 2fbd 2ac4 213d 9b3e d93d 96a1 5d3c
00000340: 89f7 083c 696f 2b3c 28ad be3d d762 ea3c
00000350: 04c6 cf3d 425b ad3d 25cb 1cbd e539 0f3c
00000360: b9f7 fa3c ed47 6f3d e2ab b23d 3f0e 3a39
00000370: aada c43b ab31 aebd 9294 943d df19 59bb
00000380: 638a 6b3d 0735 cb3b 4ed7 a73c efac e6bc
00000390: 64d1 2cbd fb9d 3a3d 5496 603d 3b69 0fbe
000003a0: 9d80 013e 9241 2d3b cf8b bfbc aeaf 44bd
000003b0: 7230 18bd 6ea1 e2bd 01d3 a3bd ab6f 0a3d
000003c0: 571e ac3d 0b87 6ebd 2fe2 1c3d 9eaa febd
000003d0: 5eec c5bd 1fbf dbbd cccb 0abd 03a1 02be
000003e0: 4cfa dcbd 5564 d2bc 8e26 0ebe f0b9 a6bc
000003f0: 5ea3 4d3d 2187 553d a6fb 3fbd 31bf b33d
-0.0042653605 -0.014028147 -0.03272696 -0.047845654 0.008504467 0.057647966 0.012222326 -0.1221189
-0.024177808 -0.028572112 -0.107033834 -0.12997621 -0.0706261 -0.036684375 -0.09751085 -0.0828601
-0.0055827554 -0.09901182 -0.035338104 -0.07524207 -0.1219637 -0.04881792 -0.14144261 -0.04233676
0.010250871 -0.10531766 0.023692083 -0.03267613 0.0047438825 -0.06216406 0.037414454 0.023262013
-0.113946676 -0.023893435 -0.07156492 0.023746943 0.06708199 0.03904314 0.08403985 0.03570746
0.039826527 0.11870746 -0.017934555 0.023158712 0.10533536 0.16500138 -0.07293827 -0.21100633
0.11080503 -0.11716335 -0.11624021 0.13025154 -0.112211406 -0.2382292 -0.084478006 -0.056311246
0.044220068 0.015869899 0.044774264 0.066721104 0.11638178 -0.00023966565 -0.029152269 -0.03231139
0.082739644 -0.012460971 0.030365296 0.09258617 0.049867406 0.02250494 0.07872795 0.009080976
-0.10184504 -0.051962983 -0.118235454 -0.09730525 -0.010887229 -0.03210783 -0.009164051 -0.07515311
-0.0027813327 0.037662182 0.015716475 0.07173447 0.090804994 0.11422225 0.07595953 0.062641345
0.097017884 -0.009720528 0.068048716 0.11864658 0.018183403 0.12192912 -0.022509037 0.0044681462
-0.056525845 0.052744105 0.05144966 -0.0111155305 0.003796845 -0.048145257 -0.024007523 -0.009979157
-0.03054674 -0.023357296 -0.052106597 0.045587998 0.026060598 -0.03860751 -0.040463563 0.03368992
-0.050448302 -0.015744826 0.0071790377 -0.061140534 -0.006829628 0.020608762 -0.001524202 -0.12166516
-0.0020298827 -0.056702234 0.07949826 -0.061021864 -0.0850114 -0.07671729 -0.007223182 0.02657291
-0.018033413 -0.05546469 -0.062335074 -0.05548637 -0.030843323 0.019417884 -0.026046362 0.043632794
-0.026283886 -0.0559511 -0.06771394 -0.013621298 -0.022642443 0.066587366 -0.056345835 -0.045822997
0.03762066 -0.03676117 -0.024458209 -0.09994811 -0.08916216 -0.109902084 -0.0299477 -0.027145475
0.008611825 -0.09667372 -0.11319382 -0.023570241 -0.09303286 -0.05001688 -0.004626842 -0.08304677
-0.01901086 0.021186082 0.080537274 0.019317443 -0.007906224 0.09394095 0.012360224 -0.08312448
0.03973949 -0.026511714 -0.023280255 -0.09018647 -0.06921208 -0.06934371 -0.03906728 -0.11306342
-0.09137076 -0.034419138 -0.017334174 -0.09840626 -0.014655105 0.082265146 -0.0034467275 0.024297524
-0.074947305 -0.04360768 -0.008677025 -0.004087952 -0.039613318 -0.04445909 -0.0619281 -0.06669646
-0.028354106 -0.032299932 0.047904205 -0.05928321 -0.013335485 -0.04513639 0.020532284 0.014599184
0.07750801 0.016318921 0.124217 -0.011906553 -0.04292864 0.039493717 0.10607644 0.013527295
0.008359798 0.010463574 0.09310371 0.028611584 0.1014519 0.08464672 -0.03827967 0.0087418305
0.030635701 0.058418203 0.0872419 0.0001774365 0.006007512 -0.08505567 0.072549 -0.0033126993
0.057505023 0.0062013897 0.020488407 -0.028158633 -0.042191878 0.04556082 0.054830864 -0.14004986
0.12646718 0.0026436788 -0.023382096 -0.048019104 -0.037155576 -0.110659465 -0.0799923 0.0337979
0.08404224 -0.058234256 0.038301643 -0.124348864 -0.09664224 -0.10729813 -0.033885762 -0.12756734
-0.10789928 -0.025682608 -0.13881895 -0.020352334 0.050204627 0.052130822 -0.04687085 0.08776701

layers.7.bias f4 [32]
00000000: fd76 88be 3811 b2be 6297 9abe b888 afbe
00000010: c7c4 9dbe ea71 adbd 736c 91be 452b 8abe
00000020: 8bad c1be 9079 5ebe 51e3 c8be 20e0 9dbe
00000030: adb7 43be c0e0 f1be 11b6 58be ca96 08bc
00000040: 4410 92be 115b 91be 74d1 29be d3cd 6ebe
00000050: 25fc a4be f661 90be fca9 58be f902 17bd
00000060: eff4 97be c08b d7be a658 a4be e8fa 04bd
00000070: 5bc0 86be 2e77 97be d86c 6abe bbf6 a2be
-0.2665328 -0.34778762 -0.3019362 -0.34283996 -0.30814192 -0.08468993 -0.28403053 -0.26986137
-0.37827715 -0.2172606 -0.3923593 -0.30835056 -0.19113036 -0.47241783 -0.21163203 -0.008336732
-0.28528035 -0.2838979 -0.16583806 -0.23320703 -0.3222362 -0.28199738 -0.21158594 -0.03686807
-0.29679057 -0.42098808 -0.32098883 -0.032465845 -0.2631863 -0.29583114 -0.22893083 -0.31828865

linear.weight f4 [4, 12802]
00000000: a58c bdbd ed05 913d 2d83 213e e2e8 3e3e
00000010: 7ca4 563e 2f82 0b3e 7077 0e3d cecb 3d3d
00000020: 9e41 013e 3473 403d 85ed 183e 05fc fc3d
00000030: ac03 063e c245 103e e378 ad3d f3ea 453e
00000040: da07 053e 81a7 ff3c 925f 4d3e 9e1a b33d
00000050: 616d 333d adfc 183d 3b65 fd3b ab86 823d
00000060: 7628 6b3d 8843 903d 42f4 983d b267 f53d
00000070: 32d5 c33d 5db0 e23d fe91 ef3c e7e6 903d
00000080: 2eea 773d 6de5 b93d c79e 853b b80f 863d
00000090: 4cee ae3d 18af 3fbc c4c0 cb3d e5a6 5f3d
000000a0: 632e cf3d 9bd7 ac3d 5d42 ad3d 02fb ea3d
000000b0: bfc0 813d f369 ff3d bcfd 9d3d af1a 153e
000000c0: 9715 f63d b92e f23d f38c 143d d66b ab3d
000000d0: 9404 8e3d a13c 503d e697 f23d 380b 7b3d
000000e0: b5d0 363e 27f0 b4bd a372 d93d e267 ef3d
000000f0: 408a c83d 6702 683d b160 f83d e571 1d3e
00000100: c71d 2a3e 9d0d f03d b447 c63d 85b4 473d
00000110: c1a6 193e ef0e e23d e616 1c3e fb01 e43d
00000120: a1ca a73d cb02 3a3d 0ac0 eb3d d11b 2c3e
00000130: 3b96 0c3e aa0b a9bd 0340 4d3e 1e37 e63d
00000140: 842e 113e 2817 fe3c 8514 3d3d 2efd df3d
00000150: 4c80 ca3d 1532 8f3d 68e2 e8bc 35fd 9b3c
00000160: d5c8 383d d7ca 783d e0d2 193c 9a27 d53d
00000170: 55d1 813d 6bd2 633d a937 9b3d c7a9 343e
00000180: 73a4 5a3e 9ea6 793c a96b 173e 3924 da3d
00000190: 9817 1e3d c0a0 433d 5b9e e23d 6998 213d
000001a0: ac6c c43d f55a e63d 254e 3b3e 5fa3 a13d
000001b0: 13c5 083e 7d6d d63d e237 c03d fb6f f83d
000001c0: 6bb8 0e3e 3c66 e53c 3e8c e03d 46ae be3d
000001d0: fe1c 373e 3835 613d cafb 193e fd25 ed3d
000001e0: 2d8a 883d 842b db3c 22c5 183d b498 033e
000001f0: 7243 cf3d 4a5e ac3d 2d16 023e 6752 f23d
00000200: c62b e53d 1407 d33d d467 ec3d f875 043e
00000210: 45f9 ab3d e869 c83c 9d03 b53d 0ddc 3e3d
00000220: 8360 0b3d 85e8 b63c 4a06 3d3e ed68 b23d
00000230: 067d 193b 0549 973c 8ba1 983d b374 123e
00000240: 6596 e53d dedf 3b3b 97bc 163e cecd ef39
00000250: 2c8a 0d3e 5102 723d fb3b 2c3d 0a6f f83d
00000260: dbc6 183e e293 943d b953 d13d b09a 2a3c
00000270: 69f0 d83d 063b 0c3d 704a 433e 3e14 253d
00000280: 3b4d 583d 55d3 5a3d 7180 bb3d 4af8 2c3e
00000290: d7e1 cf3d 984f bd3d c5ba a53d 532f 1f3e
000002a0: 6805 0d3e 2d12 b6bc 9a99 213e 3b06 f8bb
000002b0: 13bb 0a3e a1ce 163e 86d5 253e aea8 ae3d
000002c0: cd25 be3d cfb4 9f3d c3d4 0d3e d7c3 803d
000002d0: 2229 933d 61e8 c03d a9e1 32bc 16ea 1b3e
000002e0: faad 523e b2e5 423a 77c2 1e3e b30b 3e3e
000002f0: 041e 123e 00f8 27bd 68d7 82bc 8cfb d33d
00000300: 520f 183e ba81 263e 8b1e 9f3d dc3f b33d
00000310: 4345 cb3d f453 c83b c271 113e 8c61 40bc
00000320: 732e b73d e971 d23d a7b9 a33d b975 b23d
00000330: 16db 423e ab80 103d e458 d13d e108 133e
00000340: f643 393e 45a2 c439 00d4 ca3d 4569 d93d
00000350: e05e 6b3d 0684 1f3e 370f c23d 3568 3f3e
00000360: 8d73 833d 6ed8 21bc 98b8 bd3d 75c8 d5bc
00000370: 0140 f63d 01a5 b63d b868 c2bc ca57 b23d
00000380: 5bb8 213e 3f3c ba3d d527 143d 314b cb3d
00000390: 9b39 f83d c44f fc3d d0cb f13d f0ae 663d
000003a0: afb8 ae3d 8c70 623e 0e5f 2e3e b77c 113e
000003b0: 3c74 493e 8b27 d73d b062 ae3d 1737 8ebb
000003c0: a517 b13d 5f2b 933d 419b 3f3b 5d0b 163e
000003d0: e017 153e a57b 023e b087 4f3d 377e 983d
000003e0: f817 033e a076 c13d 0a22 5d3d 0bcf e73b
000003f0: 481f c23d 127f fc3d d07d ba3d 6247 743d
-0.092553414 0.070812084 0.15772696 0.18643525 0.20961183 0.1362388 0.034781873 0.04633694
0.12622687 0.046984866 0.14934357 0.123527564 0.13087338 0.1408911 0.08470323 0.19327907
0.12991276 0.031207802 0.20055988 0.08745311 0.043805484 0.037350345 0.007733015 0.06373342
0.057411633 0.070441306 0.074684635 0.11982669 0.09562148 0.11068795 0.02924442 0.07075291
0.060526066 0.090769626 0.0040777656 0.06545967 0.08541545 -0.01169946 0.099488765 0.054602522
0.101162694 0.08439561 0.084599234 0.11473657 0.063355915 0.1247138 0.077144116 0.1456096
0.12015837 0.11825318 0.036267232 0.083701774 0.06934467 0.05083907 0.118453786 0.061289996
0.17853053 -0.08834868 0.10617568 0.11689736 0.09791994 0.056642916 0.121278174 0.15375479
0.16612922 0.117213465 0.09681645 0.04875614 0.15005018 0.110380046 0.1524311 0.1113319
0.08192945 0.04541282 0.11511238 0.16807486 0.13729183 -0.08254178 0.2004395 0.112409815
0.141779 0.031016901 0.046162147 0.10936962 0.09887752 0.06991974 -0.028428271 0.019041637
0.045113403 0.06074032 0.009388655 0.10407944 0.06338755 0.055620592 0.07578976 0.1764289
0.21351795 0.015237479 0.14787163 0.1065144 0.03859672 0.047760725 0.1106536 0.03945199
0.0959104 0.112478174 0.18291529 0.07892489 0.13356428 0.10470102 0.09385659 0.121307336
0.13937537 0.02800285 0.10964249 0.09310584 0.17882153 0.054982394 0.15037456 0.11579511
0.0666698 0.026754148 0.037297376 0.1285122 0.10120286 0.08416422 0.12703772 0.11832123
0.1118999 0.103040844 0.11543241 0.12935627 0.08397154 0.024464563 0.0883858 0.046596576
0.034027588 0.02232767 0.1845943 0.08711419 0.0023420467 0.018467436 0.07452687 0.1430233
0.11210326 0.002866737 0.14720379 0.0004573897 0.1382224 0.05908424 0.04204939 0.12130554
0.14919607 0.07254769 0.10221047 0.010412857 0.105927296 0.034235977 0.19071364 0.040302508
0.052808028 0.0534242 0.09155358 0.1689159 0.101504974 0.09243697 0.08092264 0.15545397
0.13771594 -0.022225464 0.1578125 -0.007569102 0.13547926 0.1472726 0.16194734 0.08528267
0.09284554 0.077981584 0.13850693 0.062873535 0.0718558 0.09419323 -0.010918059 0.15226015
0.2057418 0.000743474 0.1550387 0.1855915 0.14269263 -0.041007996 -0.015971854 0.10350713
0.14849594 0.16260424 0.077694975 0.087524146 0.0992532 0.0061135236 0.14203551 -0.011742007
0.08944406 0.10275633 0.07994395 0.0871386 0.19028887 0.035278957 0.10222033 0.14358856
0.18092331 0.00037504933 0.09903717 0.10615782 0.057463527 0.15577707 0.09475558 0.18692096
0.06418524 -0.009878261 0.09263724 -0.026096562 0.120239265 0.08918191 -0.023731574 0.08708151
0.15792982 0.09093522 0.0361708 0.09926451 0.12120362 0.123199016 0.11806452 0.056319177
0.08531319 0.22113246 0.17028448 0.14207731 0.19673246 0.10505589 0.08514917 -0.0043400633
0.08647088 0.07186007 0.0029236826 0.14652772 0.14559889 0.12742479 0.05066651 0.074459486
0.12802112 0.09446454 0.05398754 0.007074242 0.09478623 0.12328924 0.09106028 0.05963839

linear.bias f4 [4]
00000000: 5abc 61be b710 10be fe74 12be ae65 4e3e
-0.22044507 -0.14068876 -0.14302441 0.20155975
