Models/20x20_LR=0.001/best.pth (torch, 267733 bytes, 16 tensors)

layers.1.weight f4 [16, 1, 3, 3]
000000 8e 08 88 3e 0a db d1 3e 0a 5f 54 bf 76 a5 86 3d
       0.26569027 0.40987426 -0.8295752 0.06574528
000010 e6 78 27 bf 43 69 ae be 3d ac 2e bd 64 78 c6 be
       -0.6541885 -0.34064683 -0.042644728 -0.38763726
000020 90 0e 94 be c9 be cf 3b e8 9c 1f 3f d3 41 16 be
       -0.2891736 0.006339882 0.62348795 -0.14673547
000030 c8 e1 75 3e 23 e8 28 be a3 fb 76 bd ce b0 16 bf
       0.2401191 -0.16494803 -0.060298573 -0.5886353
000040 6a aa 7b 3e fd 5e dc be 39 14 17 be 21 f2 aa bd
       0.24576727 -0.4304122 -0.14753808 -0.08346964
000050 b0 74 91 bd cf 2c 13 be 6e 4a 0c 3f f6 9e 9c be
       -0.071023345 -0.14372562 0.5480107 -0.30590028
000060 fc c4 2f 3e cf f8 d7 3e d1 51 92 3d 20 8b 99 3c
       0.17164987 0.42182013 0.071445115 0.018743098
000070 1b c7 70 3d 2f 06 7e be f7 15 d0 3b 6e e0 68 3f
       0.05878363 -0.24807046 0.0063502747 0.9096745
000080 6f cd 2c be a0 ae a5 3a 33 75 bf 3d c2 9d 93 3e
       -0.16875242 0.0012640543 0.09348526 0.28831297
000090 3b db cf 3e 94 29 10 3e 98 fe 16 3f bc c6 bf 3d
       0.40596947 0.14078361 0.5898223 0.093640774
0000a0 72 01 55 3e 94 90 74 3e 7d 8c d1 bc 73 f9 65 be
       0.20801333 0.23883277 -0.025579685 -0.22458439
0000b0 b3 d3 69 3d 41 2e d3 3e d7 74 97 3d 43 ab 80 bd
       0.057086658 0.41246226 0.07395332 -0.062826656
0000c0 3e 2b 36 3e 8d 69 e6 3e 7b 88 80 be 67 0f 02 bf
       0.17789933 0.45002404 -0.25104126 -0.5080475
0000d0 8e aa 1e 3d 41 d7 b9 bd d1 71 e1 3d ff 77 c1 3e
       0.038736872 -0.090742595 0.11008037 0.37786862
0000e0 4f 80 d0 3d 73 d2 49 3e e6 09 34 3f 12 95 08 bf
       0.10180723 0.19709186 0.70327604 -0.53352463
0000f0 ef 72 5b 3e 6c 79 0b be 6a dc 1b 3c fa 17 2a 3d
       0.21430562 -0.13620538 0.009513 0.041526772
000100 6d 01 02 3f c9 56 a8 be 88 0d b7 3e ca cb 91 3e
       0.50783426 -0.32878712 0.3575251 0.2847579
000110 63 56 a7 be f1 4c d3 be 15 6a 8e bd d9 65 3f bd
       -0.32683095 -0.4126964 -0.06953827 -0.04672799
000120 72 6c 60 3e 11 0a 37 3f 5b 2b cf 3d cb 20 07 bd
       0.21916369 0.71499735 0.10115691 -0.03299026
000130 4a 70 d7 3e 74 51 ac 3d 22 b5 04 3e fa 5c b3 bd
       0.42077857 0.084139735 0.12959722 -0.08757968
000140 20 52 53 be bb c9 b5 3e 47 03 48 3e 04 0b 24 bd
       -0.20636797 0.3550547 0.195325 -0.040049568
000150 0c 15 95 bb 22 69 1d 3f 96 7c 97 bd fa d2 b2 3d
       -0.004549628 0.61488545 -0.0739681 0.08731647
000160 e0 a2 f4 3d 83 8f aa 3d d9 6c a6 3e 26 88 10 3d
       0.119451284 0.08328154 0.3250492 0.03528609
000170 10 a1 3a 3e 67 00 df 3d 68 52 1e 3f 28 cb 59 3e
       0.18225503 0.108887486 0.6184449 0.21268904
000180 9e d3 f9 3d 94 14 ab be 61 17 ce 3e 39 9b a8 3d
       0.12198566 -0.33414137 0.40252212 0.08232731
000190 5f 42 6c 3e eb e0 67 3e 8f 44 c0 3d d1 40 06 3f
       0.23072194 0.22644393 0.093880765 0.5244265
0001a0 5a 05 e6 3e 04 d1 fb bc 9f ad 1b 3f 09 98 3f be
       0.44925958 -0.030739315 0.608118 -0.1871034
0001b0 ba 11 fe 3e 26 ae 1c 3e 15 82 87 3d f3 8b b2 be
       0.496229 0.15300807 0.06616608 -0.34872398
0001c0 62 15 74 3e 88 7b 63 3e 51 d4 d2 bd d9 f1 8c bb
       0.23836282 0.22215092 -0.102944024 -0.0043012914
0001d0 41 20 24 3d 5b 95 de 3d f2 80 40 3e f5 7d 69 3f
       0.040069822 0.10868331 0.18799189 0.9120782
0001e0 b9 45 37 3e db 43 89 3d ed e8 8b 3e d0 dc e9 3b
       0.17897691 0.067023955 0.27326146 0.0071369186
0001f0 ea 86 ab ba 70 66 1d 3e dd 70 13 bd 66 da cd 3d
       -0.0013086472 0.15371108 -0.035996307 0.10051422
000200 2e 46 52 3f 66 dc 46 3e fa ad d2 3e c8 29 34 3e
       0.82138336 0.19420013 0.4114836 0.17594063
000210 d5 f3 40 bb f0 b1 6d bd f8 a4 5b 3e 13 9f 2a 3f
       -0.002944221 -0.058031023 0.2144965 0.6664898
000220 80 db a4 3e 76 f2 cd 3e 26 b0 63 3d 8a 3d 3a bd
       0.32198715 0.40224046 0.05558791 -0.045468844
000230 1a b4 41 be 9f ef 09 bd e8 b0 fa bd 37 51 f5 3d
       -0.1891636 -0.033675786 -0.122407734 0.11978381

layers.1.bias f4 [16]
000000 c4 ff 2a bf 05 70 09 bf 6b e9 ea be b2 fc 27 3d
       -0.6679652 -0.53686553 -0.4588121 0.041012473
000010 f9 61 17 bf f4 ca e3 3e 33 9e 4f 3b 8f 32 a8 bd
       -0.5913387 0.44490778 0.0031679987 -0.08212768
000020 ea 0e 41 3d 6a 79 0d be 32 39 de 3e eb a9 1c 3f
       0.047133364 -0.13815847 0.43403012 0.61196774
000030 77 7a 1c be 22 49 c5 3e 0c ca dc 3e 66 c2 12 bf
       -0.15281092 0.38532358 0.431229 -0.5732788

layers.3.weight f4 [16]
000000 90 1c 8c 3f ad f7 bb 3f d7 de b6 3e a6 22 79 3f
       1.0946217 1.468496 0.35716888 0.97318494
000010 32 36 2b 3f fa b0 70 3f bb b9 98 3f 76 62 e7 3f
       0.6687957 0.94020045 1.193168 1.8076923
000020 59 f4 6d 3f d3 18 80 3f 12 b3 66 3f 9b 7b 36 3f
       0.9295097 1.0007576 0.9011699 0.71282357
000030 30 07 61 3f c1 a4 04 3f 9a e9 6b 3f 02 72 65 3f
       0.8790159 0.51813895 0.9215332 0.8962709

layers.3.bias f4 [16]
000000 28 10 37 be 7a 77 07 3e d8 62 6b bd 62 d9 c5 3e
       -0.17877257 0.1322917 -0.05746731 0.38642412
000010 a7 b4 b4 3e 08 70 24 be 35 91 b8 3e 2d 8b 4a bd
       0.35294077 -0.16058362 0.36048284 -0.049449135
000020 8b 7a 72 3e ea 83 88 3e c2 b8 67 3e 8b 45 28 3e
       0.23679559 0.26663142 0.22629073 0.16432779
000030 ab 54 8c 3e 97 7d b0 be b1 67 cb 3e 71 2d 7c 3e
       0.27408347 -0.34470817 0.39727548 0.2462671

layers.3.running_mean f4 [16]
000000 5f f5 c7 3c ed d9 87 3d 35 0e e9 3d b9 07 41 3e
       0.024408994 0.06633363 0.11379663 0.18850602
000010 14 ea 45 3e 2f b1 fb 3e d9 a9 35 3e df b7 d6 3d
       0.19327575 0.49158618 0.17740573 0.104842894
000020 e2 01 53 3e bb 58 41 3e 9a 3c a6 3e 56 67 ed 3e
       0.20606187 0.18881504 0.3246811 0.46367902
000030 2b 49 07 3e 26 3e 9e 3e fb 84 a2 3e 1d fc 1e 3e
       0.13211505 0.3090679 0.3174208 0.15525861

layers.3.running_var f4 [16]
000000 08 83 bb 3d 22 ce 72 3e 0f 3d 09 3f 79 2b af 3f
       0.091558516 0.23711446 0.53608793 1.3685142
000010 ac f8 8e 3f 26 c8 25 3f 31 0f 61 3f 42 05 e3 3e
       1.1169639 0.6475853 0.87913805 0.4433995
000020 38 f1 ad 3f 07 01 86 3f 46 81 db 3f 17 c5 0a 40
       1.3589239 1.0469064 1.7148826 2.1682794
000030 46 f1 22 3f 2c fe 00 40 aa 55 e5 3f c7 0d 81 3f
       0.63649404 2.0155134 1.7916768 1.008233

layers.4.weight f4 [32, 16, 3, 3]
000000 41 66 98 3d b0 4d 37 3e 5c 63 b9 be 14 21 18 be
       0.074413784 0.17900729 -0.36208618 -0.14856368
000010 62 ff b9 3e 04 8f 64 be 38 bb f7 bd 10 20 95 3e
       0.36327654 -0.22320181 -0.12096256 0.29126024
000020 e4 44 c6 bd a8 b3 9a bd 4d 18 e2 3e 10 a2 13 3e
       -0.096811086 -0.07553798 0.44159165 0.1441729
000030 20 33 20 3e 96 e8 97 3e 59 b2 c5 3e 36 1f 73 bd
       0.15644503 0.29669636 0.3861263 -0.059355937
000040 49 8a 22 3f cb 26 87 bc 73 7e 50 3e 17 cc 54 3e
       0.63492256 -0.01649799 0.20360737 0.20780979
000050 fc 50 91 bc 87 7f a2 3d 54 ee ba 3c fe 0b 28 3e
       -0.017738812 0.0793448 0.022818722 0.16410825
000060 ac 1e fc bd 3c 4d ba 3b f0 d6 91 3c df bb 8f 3e
       -0.12310538 0.0056854766 0.017802685 0.28073022
000070 6d 27 c6 3e 36 27 33 be ce 61 df 3e 92 ca 9f 3e
       0.38701954 -0.17495427 0.43629307 0.31209236
000080 37 34 91 3e d6 fb b4 3d 06 17 96 be c5 25 1b 3e
       0.2836015 0.088370964 -0.2931444 0.15151127
000090 8a 70 6b 3d 05 2c 3c be 62 fb 74 bc 54 16 49 3d
       0.057480372 -0.18376167 -0.014952512 0.04909356
0000a0 4b ac 3e 3e 3d 36 a6 3e 05 46 65 3c 21 8e d6 3e
       0.18620412 0.32463256 0.013993745 0.4190531
0000b0 61 7a e3 3e c8 27 25 3e 93 c0 1d 3e 65 4b 11 be
       0.44429305 0.16128457 0.15405492 -0.14188917
0000c0 2e 12 2d be b9 90 d9 3e 42 f9 cc 3d 87 44 f4 bc
       -0.16901466 0.42493227 0.1000848 -0.029817833
0000d0 e4 cf 8d 3e 04 d1 89 3c 7c f7 17 be fd 84 ed 3e
       0.2769767 0.0168233 -0.14840502 0.46390525
0000e0 53 9b ed 3d 1b 34 4b be 5c 92 07 3f af b1 8a 3e
       0.11601891 -0.19844095 0.529577 0.27088687
0000f0 e5 7f a1 3e 3a 3e 55 be 85 ba 15 3e 9b c8 9d 3d
       0.31542888 -0.20824519 0.14621933 0.07704278
000100 5d a1 c2 3e 56 da 31 be 78 4f 29 3e e0 6f e8 3e
       0.38013735 -0.17368445 0.16534221 0.45397854
000110 70 af e6 3d 3d c5 d0 3e 5b 30 c5 3e d9 47 a6 bd
       0.11263931 0.4077548 0.38513455 -0.081191726
000120 7a 66 f4 3c 2d 99 7b 3e df 56 9d 3c 33 fb 49 3e
       0.02983402 0.2457015 0.019206462 0.19724731
000130 a1 13 bb 3e 64 a7 71 bc 68 d1 5d 3e 4e 00 88 3e
       0.36538413 -0.014749382 0.21661913 0.26562732
000140 d0 4a 84 3e 5f eb 33 3e cc 92 a6 3e 06 e3 85 3d
       0.25838327 0.17570256 0.32533872 0.06537442
000150 fd 0d 8a bd 2f 1e 16 3f e7 ab 6f 3d bc c4 71 3d
       -0.06740949 0.58639807 0.05851355 0.05902551
000160 af d1 bf 3d 21 88 ac 3e bf db 01 be 0f 68 04 3d
       0.09366166 0.33697608 -0.12681483 0.0323258
000170 51 4a 73 3e 5d e9 fa bd b7 b0 a4 3e df 22 a1 3e
       0.23758818 -0.12251542 0.32166073 0.31471917
000180 43 17 52 3e 48 f4 89 bd a1 a6 8a 3e 52 3f 83 3e
       0.20516686 -0.06736046 0.27080253 0.25634247
000190 97 6f 77 3e cc 32 fe bd 21 a0 7d 3e 3f 56 c6 3c
       0.24163662 -0.124120325 0.24768116 0.024211047
0001a0 5b 25 86 3e af 63 5a be 65 b6 57 3e 6d 53 dd 3d
       0.26200375 -0.21327089 0.21065672 0.10806928
0001b0 b3 ee 3e 3e 78 95 87 3e 3d b5 ec 3d c9 6c c2 be
       0.18645744 0.26481223 0.11558006 -0.3797362
0001c0 28 65 16 be f0 82 a6 3e 33 98 b2 be 96 ab db bd
       -0.14687026 0.32521772 -0.34881744 -0.10726087
0001d0 eb c2 f2 3e b4 c9 d5 3e bd 01 a9 3e ea 4b a7 3e
       0.47414336 0.4175545 0.3300914 0.32675105
0001e0 92 6f c6 3e e0 d2 aa 3d fa 10 24 3e 93 c1 00 3f
       0.38756996 0.083410025 0.16022101 0.5029537
0001f0 10 57 f6 3d d3 f0 29 3e 81 c9 96 3e 29 2b 9f 3c
       0.120283246 0.16595773 0.2945061 0.01942976
000200 e6 f5 35 3e d7 e1 24 3e 43 cb 8f 3e e9 44 8a 3e
       0.17769584 0.16101776 0.28084764 0.270057
000210 04 f6 af 3e ba 1b fd bc 1c 9f bd 3e 3e cf 30 3e
       0.34367383 -0.03089701 0.37035453 0.17266557
000220 f4 e7 1f bd 05 de 14 3e 19 76 a9 be 5e d8 36 3e
       -0.039039567 0.14537819 -0.33097914 0.17855975
000230 fc 2a dc 3c a3 02 1b bc 9a d9 7d 3e 61 17 cd 3e
       0.026875965 -0.009461078 0.2479004 0.400569
000240 9c a5 52 be 31 5b b7 3e 21 26 39 be 05 d1 98 be
       -0.20570987 0.3581176 -0.18080951 -0.2984697
000250 f1 79 87 3e 9c 63 96 3c 6f 6f cf 3d c8 e0 f1 3e
       0.2646022 0.018358044 0.10128676 0.47241807
000260 2c cd 92 3c 08 69 06 3c d1 a5 e9 be a8 61 26 bf
       0.0179201 0.008203752 -0.4563432 -0.6499276
000270 87 f8 58 bd a8 7e 36 be f6 fa 89 3e ec e5 81 3e
       -0.05297139 -0.17821753 0.2694928 0.2537073
000280 65 a0 c5 bd 15 a5 e1 ba 35 85 16 3f 7c 23 cc be
       -0.096497335 -0.0017215336 0.5879701 -0.39870822
000290 d1 83 b7 bd 16 a6 c1 3e 5b 8b f5 be 58 48 75 bd
       -0.08960689 0.37822026 -0.47957882 -0.059883446
0002a0 6b 94 85 3d 1e fa fa be d5 f8 95 3d 7c 40 88 3e
       0.06522449 -0.4901895 0.073228516 0.26611698
0002b0 08 5a 94 bd 21 61 24 3d b2 94 9e 3e e8 bf 0c bc
       -0.072437346 0.04013169 0.3097282 -0.008590676
0002c0 aa 72 dd bd 6f 42 3d 3e 82 f5 7b be 3b fc 8f 3c
       -0.10812886 0.18482374 -0.24605373 0.017576328
0002d0 99 f3 39 be 04 a6 80 be 7e 70 b9 bd dd 70 88 be
       -0.18159331 -0.2512666 -0.09054659 -0.26648608
0002e0 d0 70 16 3e 63 17 19 bd 93 63 91 3d 14 d7 34 be
       0.14691472 -0.03737582 0.070990704 -0.17660171
0002f0 0f 51 77 3d d1 26 bf 3e c6 b5 89 be 0d 78 f9 bd
       0.060380038 0.37334302 -0.26896495 -0.12181101
000300 7f d9 8b 3e 54 50 8f 3e cd 02 10 be 7d d2 a1 3e
       0.27314374 0.27990973 -0.14063568 0.31605902
000310 c6 2b 2f be 87 5c 7c ba 1f e2 8e 3d ad 85 d0 3d
       -0.17106542 -0.0009626825 0.06976723 0.10181747
000320 f9 5d 59 3e 4d 1e c9 3e 89 3a 9c 3e f4 91 18 3e
       0.21227254 0.3928093 0.3051341 0.14899427
000330 49 c0 d7 3e 45 75 4a 3c 3b 2f e2 3e d6 fc 04 3d
       0.4213889 0.012357061 0.4417666 0.032467686
000340 6e 27 92 be 33 92 83 bd a7 02 d8 3e 56 d5 36 3e
       -0.28545707 -0.0642437 0.42189524 0.17854819
000350 5f 8b 50 3e 71 68 45 3f 98 d2 1d be 45 bb 3a 3e
       0.20365666 0.7711249 -0.15412366 0.182355
000360 7b 79 80 3d a1 63 3e be d9 0c 37 bd 5a f9 f5 3e
       0.062731706 -0.18592693 -0.044689987 0.48041803
000370 6f 97 d3 bd e2 d0 6b bb 04 e5 b4 3e 7b 84 65 be
       -0.10331618 -0.0035982658 0.35330975 -0.22413819
000380 4f 7c 00 3e be 54 ce bc 2b 07 8a be fc 89 93 be
       0.1254742 -0.025186893 -0.26958594 -0.2881621
000390 e1 c9 c0 3d 44 38 93 be 4d b9 b1 be 3a 1d ab 3c
       0.09413505 -0.28753865 -0.34711686 0.02088796
0003a0 46 6d 70 bd c7 69 1a bd 75 92 f3 be 77 ce 56 3d
       -0.05869796 -0.037698533 -0.47572675 0.052442994
0003b0 94 19 6f 3e 1f 27 de 3d dd c8 eb 3d d5 8c 45 3e
       0.23349601 0.108473055 0.11512921 0.19292004
0003c0 a3 e3 b4 3e 44 02 96 bd eb fa 4e 3d 91 77 e2 3d
       0.35329923 -0.07324651 0.050532263 0.11057962
0003d0 70 88 32 be d9 37 a1 be 19 a8 46 3e b6 3b 81 be
       -0.1743486 -0.3148792 0.19400062 -0.25240868
0003e0 61 20 06 bd d0 3e 04 3e a7 1d 8a be 71 60 96 bc
       -0.032745723 0.12914586 -0.26975748 -0.018356534
0003f0 fd 81 14 b9 19 11 a7 be c3 72 7d be 56 26 9c be
       -0.00014162804 -0.32630232 -0.2475081 -0.30497998

layers.4.bias f4 [32]
000000 45 b6 a0 be 36 36 aa be 0a fc 0b be e5 69 41 3e
       -0.3138906 -0.33244485 -0.13670364 0.18888052
000010 b3 80 b0 bd a0 ea bb be 80 cb 48 be 83 29 33 3e
       -0.086182974 -0.36702442 -0.19608879 0.17496304
000020 a1 94 9c be e1 38 e1 be e3 46 db be fc a0 01 bb
       -0.30582145 -0.43988708 -0.4282752 -0.0019779792
000030 ee c1 89 3e f1 7c fb bd 70 30 61 3e f5 87 20 be
       0.2690577 -0.1227969 0.21991134 -0.15676863
000040 64 ec 8e 3e cb ce 00 3e 22 23 4d 3d 89 d8 de 3e
       0.27914727 0.12578885 0.050082333 0.43524578
000050 12 0e 0f bf 5a 3b 97 bd 5a 84 b0 be f9 c6 ff 3e
       -0.55880845 -0.07384367 -0.34475976 0.49956492
000060 73 e7 12 3e 36 59 cd be b2 bb 12 be ce e8 17 bc
       0.14346103 -0.40107125 -0.14329413 -0.009271814
000070 1d 49 0b bd 2c 04 21 3e 68 28 3d 3e bf 87 e8 be
       -0.034005273 0.15724248 0.18472445 -0.45416066

layers.6.weight f4 [32]
000000 5c 3c c7 3e fc e9 fe 3e 8a 31 09 3f 0a 25 de 3e
       0.38913238 0.4978789 0.53591216 0.43387634
000010 c0 b5 cb 3e 1a 7c 34 3e c9 30 0b 3e 85 60 be 3e
       0.39787102 0.17625466 0.13592829 0.37183014
000020 53 74 b5 3e a0 18 05 3f 31 1b b3 3e 7f a6 db 3e
       0.3544031 0.519907 0.34981683 0.42900464
000030 ac 5d c7 3e 2f d8 4f 3f 0e 97 fe 3e 6d c9 64 3e
       0.38938653 0.81189245 0.4972462 0.22342463
000040 27 b0 1c 3f b7 5b ba 3d ce 03 bf 3d bf 4e 58 3f
       0.6120629 0.090995245 0.093268976 0.84495157
000050 e2 9c b9 3e 56 79 14 3f e1 c9 a6 3e 59 a4 8a 3e
       0.36252505 0.57997644 0.32575896 0.27078512
000060 7a 6c 00 3f 70 49 4f 3e f0 7b b7 3e 4e 36 50 3e
       0.5016552 0.20242858 0.35836744 0.20333216
000070 6a 87 34 3e 7d 55 25 3f db de 0d 3f cc ed b5 3e
       0.17629781 0.6458357 0.55418175 0.35532987

layers.6.bias f4 [32]
000000 f2 5f 62 be 70 0d c0 3d e6 c1 46 3d 5c 6b 00 3e
       -0.22106913 0.09377563 0.04852476 0.12540954
000010 92 6a 08 3d e0 41 85 3e d9 12 ad 3d 0c dc 39 3d
       0.03330476 0.2602682 0.084508605 0.04537587
000020 68 7e aa 3e 66 e2 26 3d b3 61 1f 3e 0f 53 0a 3e
       0.33299565 0.040743254 0.15564613 0.13508247
000030 ee 80 91 bd 8e 17 e3 bd b8 cd f4 3b 7b 3e 6e 3c
       -0.071046695 -0.11088477 0.0074708126 0.014541264
000040 a3 cc a3 3d 43 9f c0 3d e2 68 3a 3e 37 7a cc bc
       0.07998016 0.09405377 0.18204072 -0.02496062
000050 6d 86 26 3e 75 78 40 3e cb 46 02 be c3 92 e0 3d
       0.16262217 0.1879595 -0.12722318 0.109654926
000060 64 12 51 bd 69 67 d6 3b 4b b7 bd bd 0f 51 bd 3c
       -0.05104293 0.006543089 -0.09263476 0.02310994
000070 56 df 24 3e 76 5c 3f 3d 4b 96 74 3e 9c 25 92 3e
       0.16100821 0.046719037 0.23885457 0.2854432

layers.6.running_mean f4 [32]
000000 01 38 4c 40 2a 18 43 3f 58 a5 ba 3f c1 df f8 3f
       3.1909182 0.76208746 1.4581709 1.9443284
000010 75 93 70 3f 80 fb d8 3e 5f c2 e9 3f 48 3f 51 40
       0.93975 0.4237938 1.8262442 3.2694874
000020 02 b0 6a 3f 24 8f 3f 3f bb ee 32 40 c6 47 c2 3f
       0.91674817 0.7482779 2.795821 1.5178154
000030 ac c3 21 40 eb 99 f6 3e 7f 2c 46 40 55 d0 09 40
       2.5275679 0.48164305 3.0964658 2.1533406
000040 4a 92 81 40 6e 08 22 40 16 79 34 40 f5 24 bc 40
       4.0491076 2.5317645 2.8198905 5.8795114
000050 4a 00 00 40 65 ae 8b 3f 76 69 6b 3e 9a 92 7c 40
       2.0000176 1.0912596 0.22989449 3.9464478
000060 f4 c8 2d 40 4d e0 42 40 99 90 88 3d d8 a1 64 40
       2.7153902 3.0449402 0.06668205 3.5723782
000070 c0 0f 07 3f 27 1e 9d 40 50 08 17 40 6d 40 59 3f
       0.5275841 4.9099307 2.3598824 0.8486393

layers.6.running_var f4 [32]
000000 cd ea 20 43 39 4b b5 41 02 9a 6d 42 3b 97 28 42
       160.91719 22.66173 59.4004 42.147686
000010 30 4e 90 41 50 65 5b 41 43 b3 55 42 3a b8 95 42
       18.038177 13.7122345 53.42506 74.85982
000020 2a 6e 0c 42 f5 fb cb 41 f2 6f fc 42 56 b9 2e 41
       35.107582 25.498026 126.21864 10.920248
000030 64 f6 cb 42 1e ee 29 41 52 0c 13 43 98 b7 8a 42
       101.98123 10.620634 147.04813 69.35858
000040 39 c5 8c 42 94 21 d4 42 89 e8 b9 42 78 df 3f 43
       70.3852 106.06558 92.95417 191.87292
000050 78 e3 a2 42 38 c5 23 42 fb b4 b8 40 94 91 2a 43
       81.444275 40.942596 5.7720923 170.56866
000060 f6 60 08 43 ef 4c 01 43 9f 5b db 3f b3 4d 6a 43
       136.37875 129.30052 1.7137336 234.30351
000070 d2 c3 64 41 2f 5d 64 43 e5 3f dc 42 ec 1d bb 41
       14.297808 228.364 110.124794 23.38961

layers.7.weight f4 [32, 32, 3, 3]
000000 27 4d 17 bd 93 9e 2e bd 1f 77 bd 3d 7a a9 e1 3d
       -0.036938813 -0.042631697 0.09251236 0.11018653
000010 89 03 95 3d c1 15 5a bd 31 3f 92 bd a5 9a ed 3b
       0.07276065 -0.053243402 -0.07140959 0.007251101
000020 79 ab dc bd 06 56 26 be cb e0 57 be cb d3 50 be
       -0.10774893 -0.16243753 -0.21081845 -0.20393293
000030 e1 8a 1a be 81 53 e4 bd 9f 25 f3 bd 8f a6 62 be
       -0.1509204 -0.111487396 -0.1187241 -0.2213385
000040 52 a3 f0 bd f5 bd 33 be a8 4c db bd 1b 35 b5 bd
       -0.11749901 -0.17552932 -0.107079804 -0.0884802
000050 89 33 32 be 8f 11 e8 bd 07 92 3a be 59 c8 73 be
       -0.17402472 -0.11331474 -0.18219768 -0.23806895
000060 b2 15 f9 bd f2 e8 c2 bd 3a b7 eb bd aa 1a 49 be
       -0.12162341 -0.09517087 -0.11509557 -0.19639078
000070 d7 df ae bd 7a b5 d8 bd fb 91 19 be 69 95 a5 3c
       -0.08538788 -0.10581489 -0.14997093 0.020212846
000080 1c 78 cd bd 9e 1b 7d be 0c 3c 00 be 9f 09 73 be
       -0.10032675 -0.24717566 -0.12522906 -0.23734139
000090 30 d1 54 3c 06 0f 84 bd 54 ad 4f be 3c 84 80 be
       0.012989327 -0.06448178 -0.20280963 -0.25100887
0000a0 e6 34 60 be d9 43 f7 bd 02 18 83 bc 9d 68 d1 bd
       -0.21895179 -0.12073488 -0.016002659 -0.102250315
0000b0 3f 93 97 bd 2d c6 92 be 12 06 32 be 71 26 3c be
       -0.07401132 -0.2866682 -0.17385128 -0.18374039
0000c0 d4 39 7e be 95 43 6d be ae 2d 72 3b 0e 4f 1d be
       -0.24826747 -0.23170312 0.0036953497 -0.15362188
0000d0 8a 13 92 3c 2b a9 eb bd f6 45 65 bd 23 40 cb bd
       0.017831583 -0.115068756 -0.055974923 -0.099243425
0000e0 44 0d aa bd 8e 89 9f 3b ae 4d 88 bb ad be 88 bc
       -0.083033115 0.0048686927 -0.0041596508 -0.016692484
0000f0 ec 71 84 3d 4f f8 a2 3c 91 2f d0 3d 0c 1d 29 bd
       0.064670414 0.019893793 0.101653226 -0.041287467
000100 68 e0 d1 bd 9a b8 d8 bd 70 27 1d 3c b8 0a b7 bd
       -0.1024788 -0.10582085 0.009591922 -0.08937591
000110 ed 9e 85 bd 2c 45 3b bd 4c c9 31 bd 3e af 0a be
       -0.06524453 -0.045720264 -0.043404862 -0.13543412
000120 02 b1 14 be 04 1b 67 be a6 ef 91 be 73 45 76 be
       -0.14520648 -0.225689 -0.2850315 -0.2404993
000130 e4 9a 27 be 18 c9 87 be ec 1a 60 be 4a de 8e be
       -0.1636768 -0.2652061 -0.2188527 -0.27903968
000140 1e c1 9b be 63 c7 65 3d fb 2f 05 bd b8 b9 96 bb
       -0.30420774 0.056098353 -0.03251646 -0.004599776
000150 d4 1b 6d 3d e1 f2 8c 3d 49 80 70 3d 82 98 d4 3c
       0.057887867 0.06882263 0.058716092 0.025951628
000160 d5 61 b9 bc c0 ea 48 bd 54 d3 0e 3d f8 ae 29 be
       -0.022629658 -0.049052 0.034869507 -0.16570652
000170 0d 02 8d bd ea 70 d1 bc 5c a6 98 bd 03 95 44 3d
       -0.06885157 -0.025566537 -0.074536055 0.04799367
000180 86 65 4d be 3a d5 15 be 95 63 68 bd ff 9c 03 be
       -0.2005826 -0.1463212 -0.056735594 -0.12852858
000190 54 57 e8 bd c8 99 db bd e0 a4 6f be 4b 38 0b be
       -0.113447815 -0.10722691 -0.23402739 -0.13595693
0001a0 c1 c6 3d be 91 ca ea bc 73 c0 eb bd 12 fa e2 bd
       -0.1853285 -0.028661044 -0.11511316 -0.110828534
0001b0 63 f0 c8 bd fc e6 0a bd 6f 75 f3 bb ae d6 1a bc
       -0.09811475 -0.03391169 -0.0074297707 -0.009450598
0001c0 95 bc 87 bc c6 b1 25 3d d1 b5 10 3e f4 79 2c 3e
       -0.016569415 0.04045274 0.14131857 0.16843396
0001d0 b6 10 ad 3d c6 13 03 3e dd cd c1 3d 46 a3 22 3e
       0.08450453 0.12800512 0.094630934 0.15882596
0001e0 3e da 33 3e 08 4c 3a 3e a1 65 eb 3d 71 26 4d 3e
       0.17563722 0.18193066 0.114939936 0.20034195
0001f0 91 cb ef 3d 71 46 09 3e d0 51 08 be a4 46 e6 bc
       0.11708749 0.13405778 -0.13312459 -0.028109856
000200 15 fb a3 3c f8 34 24 3d f7 e3 6c bc d8 61 6a bd
       0.020017186 0.040089577 -0.014458648 -0.057222217
000210 89 a6 b7 3d 6b da a4 3c 47 0b 99 3d ef 2d 43 3c
       0.08967311 0.020123681 0.07472854 0.011912807
000220 bb be 3e 3d d6 ec 46 bd 46 e0 6a 3c 00 1b 74 3d
       0.046568613 -0.048565708 0.0143356975 0.05959606
000230 39 1d 02 be fe d4 0a bd b2 10 99 bc ca 14 35 3c
       -0.1270646 -0.03389453 -0.018684719 0.01105232
000240 fb c2 49 be 1d f5 39 be 19 13 eb bc 1f dd bf bd
       -0.19703285 -0.1815991 -0.02869563 -0.093683474
000250 99 d4 55 bd e4 56 c1 bd 32 88 fa bd 09 05 fb 3d
       -0.052204702 -0.09440401 -0.122330084 0.1225682
000260 0d ab 38 bd c5 96 72 be 1e f9 7d be e9 9f 16 be
       -0.045085 -0.23690327 -0.24802062 -0.14709438
000270 43 aa 15 3c d1 cf 29 bd 6e 46 14 be a0 db 72 bb
       0.009134832 -0.041457955 -0.14479992 -0.0037057176
000280 c2 e1 aa 3d ca d1 00 bd 5e 98 92 bd 16 24 0e bd
       0.08343841 -0.03145007 -0.07157968 -0.034702383
000290 8c d7 e1 bc 4f ed 08 be 00 e8 7c bc ba bc 83 bd
       -0.027568601 -0.13371776 -0.0154361725 -0.06432481
0002a0 9e 74 07 be 68 43 9d 3a 8d 68 6c bd c8 3b 1c be
       -0.1322808 0.0011998238 -0.057716895 -0.1525718
0002b0 7e 89 94 bc 44 bb b4 3b 02 7e a0 3d 11 cd 90 3d
       -0.018131968 0.005515488 0.07836534 0.07070363
0002c0 47 30 97 bb 5f 06 0a 3c 4b 6d 49 3e a0 d7 30 3d
       -0.0046139094 0.008424371 0.19670598 0.043174386
0002d0 f1 52 cc 3d 04 3a e3 bc 91 d3 1f 3c 93 81 73 bc
       0.09976757 -0.027737625 0.009755031 -0.014862436
0002e0 3d 16 c3 3d 0a 29 7e bd a7 c0 f5 3d a8 73 76 3d
       0.09525726 -0.062050857 0.11999636 0.060168892
0002f0 14 4b da 3c cd 32 64 be 1d 5e 90 be be 3d 5b be
       0.026647128 -0.22285004 -0.28196803 -0.21410272
000300 b9 9e ad be 6f e3 0e be 6d ee 3a be e8 cf 78 be
       -0.33910158 -0.13953947 -0.18255015 -0.2429806
000310 9e 87 70 be 98 22 7f be 1a 65 06 3d 8b 0b 68 bd
       -0.23489234 -0.2491554 0.03281126 -0.056651633
000320 f9 68 75 bd 98 e4 c5 3c 13 ae 17 be cc b4 3f be
       -0.059914563 0.024156854 -0.14812498 -0.18721312
000330 b4 cb a4 bd 41 2b 96 bc ee 4f 13 3d 0e 06 a8 bc
       -0.08046666 -0.018331172 0.0359649 -0.0205107
000340 49 ba 83 bd 20 07 b8 bc 46 ee 0b 3c 2e 8a 10 3b
       -0.064320154 -0.022464335 0.0085406955 0.0022055018
000350 6d a3 b5 bd 5f 78 10 3d 08 8f da bd 96 78 01 bd
       -0.088690616 0.035271045 -0.10671812 -0.03160914
000360 ee b5 59 bd 27 a1 94 3c 1c ec e3 3d eb 2d 72 3d
       -0.053152017 0.01814325 0.11129019 0.059125822
000370 9d 79 3a 3d e7 54 ce bc be eb 02 3e 56 2c 1b bd
       0.045526136 -0.025186969 0.12785241 -0.03788408
000380 2c 58 7f 3d 34 77 95 3d 29 14 0a 3e 39 fe a0 3d
       0.062339947 0.07298127 0.13484253 0.07860989
000390 fa c3 82 3d a9 1a 89 bc c1 05 e2 bc 0d 19 ee bc
       0.06385036 -0.016736345 -0.027590634 -0.02906468
0003a0 a4 99 d6 bd 5c be 88 bd 75 ea b3 3d b5 d4 0f 3e
       -0.104785234 -0.06676933 0.087849535 0.14045985
0003b0 39 91 09 3d 7f 2f 19 3e df 43 0d 3e 2e 91 8d 3d
       0.03358576 0.14959525 0.13795422 0.069124565
0003c0 6d 2d d6 3d 14 17 23 3e 16 0e 8e 3d 8f e8 57 3e
       0.10457883 0.15926772 0.069362804 0.21084808
0003d0 01 bd 41 3e 73 51 ae bd 99 ec 02 3e 52 e1 ef 3d
       0.18919756 -0.08511629 0.12785567 0.11712898
0003e0 58 1b b4 3d 47 c6 66 3d 07 d1 91 3d e0 c3 87 3d
       0.08794278 0.056341436 0.07119947 0.06629157
0003f0 41 77 73 bd bc 4b f6 bd c1 80 b9 bd b5 4b 88 be
       -0.0594399 -0.12026164 -0.09057761 -0.2662026

layers.7.bias f4 [32]
000000 23 c0 e1 be e4 1a a2 be 26 e4 f1 be 28 3a 86 be
       -0.440919 -0.3166114 -0.47244376 -0.26216245
000010 0b 56 87 be fa 5a 0c bf 3a 90 a3 3e af 76 14 bf
       -0.26432833 -0.5482632 0.31945974 -0.57993597
000020 c9 67 e5 be 20 f9 1e bf 01 fe bd be 8f cc ea be
       -0.44805744 -0.62098885 -0.37107852 -0.4585919
000030 7c b4 0d bf 20 2e 27 bf bf 6b 10 bf 15 b8 04 bf
       -0.5535352 -0.65304756 -0.5641441 -0.51843387
000040 16 e7 a9 be a6 fd 58 be cc 30 97 be cd 01 b1 be
       -0.33184117 -0.21190509 -0.29529417 -0.34571686
000050 23 19 db be 7a cb 29 bf 6c 13 b5 be 8a e5 aa bd
       -0.42792615 -0.66326106 -0.3536638 -0.08344562
000060 d7 f9 1f bf 87 e2 f6 be f7 57 f8 be 7b eb b4 be
       -0.624906 -0.48219702 -0.48504612 -0.35335907
000070 02 c5 26 bf 41 22 c0 be 29 37 1c bf c6 ad e5 be
       -0.6514436 -0.37526134 -0.6102167 -0.4485914

linear.weight f4 [4, 12802]
000000 2c c7 90 3c e5 4a 62 bc 30 ce c4 bc d9 1e cf 3c
       0.017673098 -0.013811802 -0.0240241 0.025283264
000010 b1 2f c9 3c be 3d bf 3d 75 b2 c8 3c 1e 42 20 bd
       0.024558874 0.09337948 0.024499157 -0.039125554
000020 07 36 1c 3d ba 88 22 3e 23 5a 04 3d 11 22 1d 3e
       0.038137462 0.1587247 0.032312524 0.15345027
000030 ef f3 15 3e 92 9f f4 3d c1 21 92 3d 9f fa b6 3d
       0.14643835 0.11944498 0.07135344 0.08934521
000040 10 5a 70 3d a2 2d d0 3d d2 09 1d 3d b5 40 4b 3d
       0.05867964 0.10164954 0.038339444 0.049622256
000050 88 2a 02 3b 74 c9 13 bd 62 c7 05 3c 80 58 a6 3d
       0.0019861776 -0.036080793 0.008165212 0.08122349
000060 a2 49 90 bb 26 d4 07 3c a7 cc 6d bd a1 46 64 bd
       -0.004403309 0.008290326 -0.0580565 -0.05573142
000070 05 d9 42 3d 09 3c 4e 3d 4f 63 54 bc 04 33 81 3c
       0.047570247 0.050350223 -0.01296313 0.015771396
000080 96 67 c4 bc 7d 2c fb bc 9a c5 f3 bb 60 62 4c bd
       -0.023975175 -0.030660862 -0.0074393274 -0.049898505
000090 e4 8e f1 bc d3 5b 9d bc 33 b5 7a bd af 60 06 bd
       -0.02948708 -0.019208824 -0.06120796 -0.03280705
0000a0 f6 5b 30 b9 06 18 c3 3c 3c 96 06 3c 70 4a 14 3e
       -0.00016818926 0.023815166 0.00821453 0.1448152
0000b0 ea 50 c0 3c ad ed 7b 3d 77 6a 06 bd 01 24 d5 bc
       0.023476083 0.061505962 -0.032816377 -0.026018145
0000c0 5b 4c 77 3c 2d c1 87 3d a8 80 2c bd d5 79 94 3c
       0.015093888 0.06628642 -0.042114884 0.0181245
0000d0 4c 00 5c bc fc 29 d1 3c 6c 9e d8 bc 05 50 62 bd
       -0.013427805 0.025532715 -0.026442729 -0.055252094
0000e0 e4 d9 84 bc d9 3a f0 ba d8 d8 e0 bc 5b 1c 1b bd
       -0.01621718 -0.0018328085 -0.02744715 -0.03786884
0000f0 70 01 1b 3c 05 d5 47 3d 6a 90 38 bd 84 e1 9d 3d
       0.009460792 0.048787136 -0.0450596 0.07709029
000100 ea 5b f7 3c f1 79 71 3b f9 59 7c bd 47 98 6b bc
       0.030195195 0.0036846364 -0.061609242 -0.0143795675
000110 e9 e4 ab bc a2 f9 af bd c5 f7 cc bb 32 fd e9 bc
       -0.020983176 -0.085925356 -0.0062551224 -0.028563116
000120 28 e7 47 3d 42 82 d7 bb c0 37 ee 3c 36 6c 4d bd
       0.048804432 -0.0065768072 0.029079318 -0.050152026
000130 53 8d c3 3d d2 c3 a0 bc 29 4b 87 3c c6 b3 ea bc
       0.0954844 -0.019624624 0.016515331 -0.028650176
000140 9d 90 3e bd f6 39 94 bd de e7 5c bd 91 35 47 3d
       -0.046524633 -0.07237618 -0.053932063 0.04863507
000150 b4 20 fa 3d cb e0 db bb 41 5e 9c 3b c4 f1 26 3d
       0.12213269 -0.006710147 0.004771978 0.04075791
000160 55 7e 67 3d 68 05 0b 3d db b2 6a 3c 17 8f 33 bd
       0.056516964 0.033940703 0.014324869 -0.043837633
000170 5d bc d8 ba 08 86 4d 3d 0c 8c 8a bc eb 1c 54 3d
       -0.0016535629 0.05017665 -0.016912483 0.05178539
000180 53 69 48 3d 67 85 6f 3c bb e1 63 bc ef 62 8c bd
       0.04892857 0.014619208 -0.013908799 -0.068548076
000190 6b a3 e0 3d 89 6a 5c 3d 5d a2 e9 3c 32 6c 77 3d
       0.109686695 0.053812537 0.028519804 0.060405917
0001a0 c8 d3 10 3d 05 e9 be bc 18 b8 0b 3c e5 ac 30 bd
       0.03535822 -0.023304472 0.008527778 -0.043133635
0001b0 84 90 50 3c 30 bc d5 bc 43 f6 47 bd 48 ea 4a bd
       0.012729768 -0.026090711 -0.048818838 -0.049539834
0001c0 02 b9 cf 3c a5 c1 44 3c e8 6d a4 3b 81 08 b9 bc
       0.025356773 0.012009059 0.0050179847 -0.022587063
0001d0 60 20 8c bc 9f 59 04 bd 1b 70 25 bd ff eb 68 bc
       -0.017105281 -0.03231203 -0.040390115 -0.014216422
0001e0 77 a1 5f 3c ed 5f 11 bd 7c b1 aa 3d 97 17 cd bd
       0.013649336 -0.035491873 0.08334634 -0.10014265
0001f0 95 65 30 bd 2a 22 f0 bb 0a 90 f9 bc 2d a7 27 3c
       -0.043065626 -0.0073282914 -0.030464191 0.010232729
000200 d7 42 03 3d 6f 4d 16 3d fc 2a 85 3d 78 82 20 bd
       0.032046165 0.03669494 0.06502339 -0.039186925
000210 d4 de 7f 3d 7e 7c 3b b9 a4 c8 50 3d ae 26 c6 bd
       0.062468365 -0.00017880087 0.050972596 -0.09675346
000220 72 b8 4a bd 65 c3 af 3c 88 1a 33 bd 4a b9 cf bc
       -0.049492307 0.021455476 -0.043726474 -0.025356907
000230 b5 f6 db 3c c6 a4 4a 3d d0 95 78 3d c1 2c 15 3d
       0.026851038 0.049473546 0.060689747 0.036419634
000240 a5 6b d1 3c f6 93 15 3d 95 af 13 bd 2e 8d 13 bd
       0.025564024 0.03651806 -0.03605612 -0.03602331
000250 86 c2 23 bd 7c 99 2d bd 65 12 d0 bb 43 61 bd 3b
       -0.039980434 -0.042382702 -0.006349849 0.0057794168
000260 ba 59 fb bc d1 0a 13 3d 81 93 fd bc 71 36 01 3d
       -0.030682433 0.035898987 -0.030954124 0.03154606
000270 67 47 a6 bb 3f d1 71 3c 2d a5 3c 3c c0 53 86 3b
       -0.00507443 0.014759361 0.01151399 0.0040993392
000280 f8 bc c7 3c 0e 35 35 3d 88 07 a5 3d d3 a0 ff 3c
       0.0243821 0.04424005 0.08058077 0.031204617
000290 7c 23 cb ba 9e 3d 14 bc 96 50 f0 ba d9 38 33 bd
       -0.0015498246 -0.009047894 -0.0018334563 -0.043755386
0002a0 9b c1 89 3c fa e5 a4 3d 36 ab 06 3d 5a 60 b3 bd
       0.016815951 0.08051677 0.032878123 -0.08758612
0002b0 d8 a5 a1 3c ae a8 64 3d 3b 4d 81 3b 3e 38 57 bd
       0.0197324 0.055824928 0.003945974 -0.05254387
0002c0 fd a2 d4 bd 9f c4 75 bc ef 0c 1b bd 37 e6 0c bd
       -0.1038265 -0.015000491 -0.03785413 -0.034399237
0002d0 31 ef e9 ba b2 65 52 3d f1 60 ec 3d eb e3 3a bc
       -0.0017847774 0.051366515 0.115419276 -0.011406879
0002e0 d3 5a 31 bc c5 ef 4d 3d e9 e7 be 3d 3e 5c 89 3d
       -0.010824877 0.05027749 0.09321577 0.06707047
0002f0 2e 7d 1d 3d f6 21 95 3d 00 20 9f 3b c7 45 a1 bd
       0.03844946 0.07281868 0.0048561096 -0.07874637
000300 7e c8 26 3d 95 c6 8d 3c 81 a8 92 bd 10 c5 f7 bc
       0.040718548 0.017306605 -0.07161046 -0.030245334
000310 02 e7 b3 3c 29 aa cd 3d b4 17 8f bd 12 8a ad 3c
       0.021960739 0.10042221 -0.06986943 0.021184001
000320 cc 90 99 3c d9 27 d4 36 59 92 e0 3d 59 28 8f bb
       0.018745802 6.322731e-06 0.109654136 -0.0043688235
000330 ef 42 c8 b9 4e c7 cc 3d d2 fe e6 3c 13 51 52 bd
       -0.00038196842 0.09998952 0.02819768 -0.05134685
000340 27 a2 82 3d 3a fa 85 3d 82 dc 42 3d be 0d 9c bd
       0.06378584 0.065418676 0.047573574 -0.076198086
000350 ed b8 02 3b 1d 7d a0 bd 03 90 8c bd d5 25 1d bd
       0.001994665 -0.078363635 -0.068634056 -0.038366158
000360 19 35 d3 3c 5e ef 11 3d f1 13 44 bd 74 f1 2f 3d
       0.025782155 0.03562867 -0.04787058 0.042954877
000370 d8 16 87 3d 96 94 1d bd e1 20 0d 3d 20 6e bf ba
       0.06596154 -0.03847178 0.034455184 -0.0014604963
000380 a7 5c ae 3c a5 f8 71 bc df e5 11 3d 96 c0 e5 3b
       0.021284414 -0.014768754 0.035619613 0.0070114834
000390 fa b2 18 3d e6 55 45 3d 6c e2 24 3d 1b ba 28 3c
       0.03728006 0.048177622 0.040254995 0.010298277
0003a0 ad 01 62 bc 04 d0 a1 bc 86 bb 94 bd d0 27 fe bc
       -0.013794345 -0.01975251 -0.0726233 -0.031024843
0003b0 47 21 5e bd ad a5 18 3d f5 89 8d bd a9 7a 1d 3d
       -0.054230954 0.037267376 -0.06911079 0.038447056
0003c0 b1 e2 16 bd c8 5e 09 bc e9 04 7d 3d f5 cf e0 3b
       -0.036837284 -0.008384414 0.06177226 0.006860728
0003d0 bf 79 23 bd d4 6c 5e bc 13 fa 5d 3d db 6b 70 bc
       -0.039911028 -0.013575751 0.054193567 -0.014674152
0003e0 b7 35 7e 3d 59 ef 03 3d 42 94 2e bd 53 79 01 be
       0.062062945 0.03221068 -0.04262186 -0.12643938
0003f0 5b 04 17 3d ac b7 5e bc eb fe 35 bc 5b 11 bb 3b
       0.036869388 -0.0135935955 -0.01110814 0.005708856

linear.bias f4 [4]
000000 82 09 6c 3e 06 07 ab 3e f1 52 03 bf 37 03 0b bf
       0.23050502 0.33403796 -0.51298434 -0.5430178
